DQN/DDQN_checkpoint/DDQN.pth (torch_old, 1359 bytes, 4 tensors)

l1.weight f4 [20, 4]
0.4231546 0.6860825 -0.16479011 0.40796643 0.42098564 -0.4373737 -0.020490691 0.0031584965
-0.031196287 -0.5591519 -1.1070933 -0.88597643 0.029380657 -0.2547799 -0.55301857 -0.7186686
0.112063356 0.0842271 -0.39343494 -0.51618123 0.20591345 0.026493298 -0.09765599 -0.14208497
0.585913 0.106186576 -0.4575395 -0.03450922 0.37210354 -0.044158105 -0.38177446 -0.64990234
0.34517553 0.51142746 -0.039948545 -0.020556282 0.0072924327 0.04830778 -0.2616151 -0.07412063
0.025202358 0.64061314 0.25958988 0.5776382 -0.16947192 -0.66946095 0.38321343 0.30593047
0.123991616 0.54891217 1.0974698 0.55688196 -0.021283558 -0.33311054 0.29051378 -0.38812128
0.070556626 -0.12692188 -0.7722816 -0.5255502 -0.18717459 -0.7609369 0.30690837 -0.25964636
-0.09251391 -0.269049 0.1256802 -0.35324305 0.20218423 0.41560808 0.0419026 0.056728464
-0.27218065 0.42915687 -0.30682057 0.06703819 -0.30224332 0.30167997 -0.51063955 0.010341521
00000000: b8a7 d83e 1aa3 2f3f bdbe 28be fae0 d03e
00000010: 6e8b d73e 72ef dfbe 18dc a7bc c7fe 4e3b
00000020: 5b8f ffbc 9424 0fbf 3cb5 8dbf 5acf 62bf
00000030: b4af f03c 8372 82be a092 0dbf aafa 37bf
00000040: 7981 e53d 427f ac3d 4e70 c9be 7424 04bf
00000050: fada 523e 7908 d93c ddff c7bd b97e 11be
00000060: 65fe 153f 5978 d93d 9e42 eabe 8a59 0dbd
00000070: 5b84 be3e 21df 34bd f177 c3be 0060 26bf
00000080: d9ba b03e e9ec 023f 16a1 23bd a665 a8bc
00000090: 5cf5 ee3b 61de 453d 6af2 85be 8fcc 97bd
000000a0: 2d75 ce3c 39ff 233f f7e8 843e 19e0 133f
000000b0: 0c8a 2dbe cb61 2bbf 8d34 c43e eba2 9c3e
000000c0: 51ef fd3d 8285 0c3f e479 8c3f d18f 0e3f
000000d0: db5a aebc 778d aabe 39be 943e d5b7 c6be
000000e0: fe7f 903d cff7 01be 3fb4 45bf 758a 06bf
000000f0: b2aa 3fbe c3cc 42bf 1823 9d3e 5ef0 84be
00000100: ef77 bdbd cac0 89be 4fb2 003e 46dc b4be
00000110: 6209 4f3e 95ca d43e 10a2 2b3d 1b5c 683d
00000120: 435b 8bbe 73ba db3e 9617 9dbe 524b 893d
00000130: a3bf 9abe cc75 9a3e 46b9 02bf 7c6f 293c

l1.bias f4 [20]
-0.50776595 0.32556188 0.2684196 -0.014573564 0.29681838 0.40129805 0.58656156 -0.04537384
-0.3436628 0.19603837 0.26430586 0.12809466 0.3075554 0.45622525 -0.27979985 -0.42563355
0.4802251 0.67984694 0.3730367 0.37212628
00000000: f3fc 01bf 0cb0 a63e 4b6e 893e f5c5 6ebc
00000010: 94f8 973e f076 cd3e e628 163f ebd9 39bd
00000020: 92f4 afbe 48be 483e 1953 873e 3f2b 033e
00000030: e777 9d3e 5b96 e93e ed41 8fbe a4ec d9be
00000040: 10e0 f53e 730a 2e3f abfe be3e 5687 be3e

l2.weight f4 [2, 20]
-0.086745545 0.13364111 -0.59407365 -0.5998092 0.0782095 0.27108893 0.18690732 0.023990624
-0.25081244 0.2453288 -0.26815376 -0.08822628 -0.41607106 0.5363033 -0.32420284 -0.6106541
0.54901105 0.22596255 0.1267444 0.36599347 -0.15608245 -0.03558991 -0.52312243 -0.5695026
-0.49705014 0.37232912 0.27197674 -0.11623385 -0.07720528 0.035166755 -0.1561412 -0.028832996
-0.3163949 0.54913414 -0.12231386 -0.36687535 0.524275 0.3177077 0.20424621 0.22457646
00000000: a6a7 b1bd 37d9 083e 3615 18bf 198d 19bf
00000010: 4d2c a03d 2bcc 8a3e a264 3f3e fc87 c43c
00000020: 7d6a 80be 7937 7b3e 734b 89be fbaf b4bd
00000030: 4407 d5be 2c4b 093f eafd a5be d453 1cbf
00000040: fd8b 0c3f ba62 673e 49c9 013e 7f63 bb3e
00000050: 14d4 1fbe bac6 11bd 5aeb 05bf ecca 11bf
00000060: 5b7d febe eca1 be3e 8940 8b3e 030c eebd
00000070: cd1d 9ebd 040b 103d 7be3 1fbe 2d33 ecbc
00000080: 83fe a1be 0e94 0c3f b07f fabd 16d7 bbbe
00000090: e336 063f 95aa a23e eb25 513e 5ff7 653e

l2.bias f4 [2]
0.19792685 0.2535364
00000000: 56ad 4a3e 86cf 813e
