Policy Gradient/pg_checkpoint.pth (torch_old, 1359 bytes, 4 tensors)

l1.weight f4 [20, 4]
0	0xbe9e67f5	-0.30938688
1	0xbdc94824	-0.09828213
2	0xbdd0ee84	-0.10201743
3	0xbc931dae	-0.017958488
4	0x3d7b7df0	0.0613994
5	0xbeb80aa2	-0.35945612
6	0xbe063ee8	-0.13109934
7	0xbe824a80	-0.25447464
8	0x3e5e7778	0.21725261
9	0xbefff298	-0.49989772
10	0xbebf4bd6	-0.37362546
11	0xbeca7a70	-0.39546537
12	0x3e3cc69c	0.18435138
13	0xbedbd039	-0.429323
14	0xbeee4aae	-0.4654135
15	0xbe5cf254	-0.21576816
16	0x3ef5f688	0.4803965
17	0xbed1b26c	-0.40956438
18	0xbed4feee	-0.41600746
19	0x3e464e24	0.19365746
20	0x3ea7fb76	0.32809037
21	0x3eda336a	0.4261735
22	0xbe4f9aa4	-0.20273834
23	0xbdd6ddb0	-0.10491502
24	0x3e98530e	0.29750866
25	0x3e7985fe	0.2436752
26	0x3e630f80	0.22173882
27	0xbefb1344	-0.49038136
28	0xbd0be3c0	-0.034152746
29	0x3e4b7352	0.1986821
30	0xbe5871cd	-0.21137162
31	0x3ecbd66e	0.39812034
32	0x3eda442c	0.42630136
33	0xbcc9a9a0	-0.024617016
34	0x3ebed02a	0.37268192
35	0xbebbbcf8	-0.3666761
36	0x3de093e0	0.10965705
37	0x3e676123	0.22595648
38	0xbe7eb42b	-0.24873416
39	0x3e90ee7c	0.2830695
40	0xbeced7b3	-0.4039894
41	0x3e639765	0.22225721
42	0xbe8be3aa	-0.2732213
43	0xbd307fc9	-0.043090615
44	0xbd8d1850	-0.06889403
45	0xbeacf2aa	-0.33778888
46	0x3dc150d8	0.09439248
47	0x3e7d3080	0.24725533
48	0xbee18632	-0.44047695
49	0x3db3b138	0.08774036
50	0xbefcd9fa	-0.49385053
51	0xbeace27e	-0.3376655
52	0x3ec2b319	0.38027266
53	0x3e380f41	0.17974569
54	0xbe86c67a	-0.263233
55	0x3e8848f9	0.26618174
56	0xbedc84b6	-0.4307
57	0xbec36842	-0.3816548
58	0x3d4cf7b0	0.0500409
59	0x3cd56e20	0.026053488
60	0xbebec129	-0.37256745
61	0xbe380e24	-0.17974144
62	0x3e4642e4	0.19361454
63	0x3e84fa34	0.2597214
64	0x3e84755e	0.25870794
65	0x3e7a8adf	0.24467038
66	0xbe19ded9	-0.15026416
67	0x3d1911c1	0.037370447
68	0xbed37e84	-0.4130746
69	0x3e41109b	0.1885399
70	0x3eaed13e	0.34144014
71	0xbe449d23	-0.19200568
72	0xbeeacf2a	-0.4586118
73	0x3e910b08	0.2832873
74	0xbf326968	-0.6969209
75	0x3e8af685	0.27141204
76	0x3d32bfc5	0.043639917
77	0x3e07388c	0.13205165
78	0x3e7cbb8e	0.24680921
79	0xbee23219	-0.44178846

l1.bias f4 [20]
0	0x3ef4999d	0.47773448
1	0xbed30eea	-0.41222316
2	0xbe31dc7c	-0.17369264
3	0x3d63056b	0.05542509
4	0xbebad58a	-0.36491042
5	0xbe12c378	-0.14332378
6	0x3e25d5a5	0.1619478
7	0x3e574d0d	0.21025486
8	0xbe7ec774	-0.24880773
9	0x3ef71af8	0.48262763
10	0x3ea8bc58	0.32956195
11	0xbec34d84	-0.38145077
12	0xbe4ff770	-0.20309234
13	0x3db0b0b5	0.08627454
14	0xbeb071f6	-0.34461945
15	0x3e97d85d	0.2965726
16	0x3ea31a2c	0.31855905
17	0x3e567a40	0.20945072
18	0x3da00600	0.078136444
19	0x3e8bc0be	0.27295488

l2.weight f4 [2, 20]
0	0x3d8b4f41	0.06802226
1	0x3e281072	0.16412523
2	0xbe1a5658	-0.15072
3	0x3bb6a4c7	0.005573842
4	0xbd31e594	-0.043431833
5	0x3e50e414	0.20399505
6	0x3d17dafc	0.037074074
7	0xbe47b5c3	-0.1950293
8	0xbe5e4fd4	-0.2171014
9	0xbcc85b16	-0.024457496
10	0x3e020521	0.12697269
11	0x3d112628	0.03543678
12	0x3df5379c	0.11973497
13	0x3dae7fe5	0.08520488
14	0xbd29f9f0	-0.041498125
15	0xbc8673ff	-0.016412733
16	0x3e13a563	0.14418559
17	0x3dcfb743	0.10142376
18	0x3d09dae1	0.033656005
19	0xbe4524d2	-0.19252327
20	0x3e5caf3a	0.21551219
21	0x3d9c3140	0.07626581
22	0xbccedb20	-0.025250971
23	0x3de5c609	0.11219413
24	0xbe2e4502	-0.17018512
25	0xbd93f798	-0.07224959
26	0x3e405e09	0.18785872
27	0xbd6ceea0	-0.057844758
28	0x3e238266	0.15967712
29	0x3de6a91b	0.11262723
30	0xbdd8a964	-0.10579184
31	0x3e2e37f4	0.17013532
32	0x3e49a8d0	0.19693303
33	0x3e43281b	0.19058268
34	0x3d103b18	0.035212606
35	0x3e4019b0	0.18759799
36	0x3c7be304	0.015373949
37	0x3e1382ff	0.1440544
38	0x3e09996d	0.13437434
39	0x3d027953	0.031853985

l2.bias f4 [2]
0	0x3d90c389	0.07068545
1	0xbe1eba3b	-0.15500729
