PPO/ppofinal.pth (torch_old, 3103 bytes, 9 tensors)

l1.weight f4 [20, 4]
000000 4c 5b 5f bd 3d 2a 6b 3e 7a 1a bc be 11 ba 5a 3d
       -0.054530427 0.22965331 -0.3673895 0.053400103
000010 11 dc 67 be 80 a3 30 3e 5a 17 3f bf fb f1 5d bf
       -0.22642542 0.1724987 -0.74645007 -0.8669736
000020 b4 32 48 3e b7 ac 9c be 9b bb a9 3d e7 55 aa 3e
       0.19550592 -0.3060052 0.08287736 0.33268663
000030 ab 98 3e be eb 10 90 be 97 cb 81 3f cf a1 50 3f
       -0.18612926 -0.28137907 1.0140256 0.814969
000040 fc a5 c8 bd 8b 8d bc 3e 04 96 aa 3f 78 90 44 3f
       -0.09797284 0.3682674 1.3327031 0.7678294
000050 f7 c7 84 3e d5 9f ae be 7b ab 00 bf 8d 76 7c 3d
       0.2593381 -0.34106317 -0.5026166 0.061636496
000060 09 87 ca be 54 73 ea 3e 8a a8 a7 3f ce 9f 7d 3f
       -0.3955615 0.45791113 1.3098309 0.9907197
000070 5d 5e 86 be eb dc 8d 3e a9 67 1f bf 71 8e 66 bf
       -0.26243868 0.2770761 -0.6226755 -0.900611
000080 02 cd 5c bc 46 40 b5 3e f3 40 de 3e a9 52 16 3f
       -0.013476612 0.354006 0.43408927 0.5871988
000090 75 ec 08 3e f1 2b 4b be 06 f8 63 bf 50 53 40 bf
       0.13371451 -0.19840981 -0.8905033 -0.75127125
0000a0 98 73 89 be 4c 2a c8 bd b1 82 8e bd 00 db 79 3e
       -0.26846004 -0.097736925 -0.06958521 0.24399948
0000b0 93 1b 12 3e ef 2b 6e 3c 8c ec de 3e 5f 25 83 3e
       0.14268331 0.014536842 0.43539846 0.2561445
0000c0 ba 2e 97 3e 40 96 21 bd 99 be aa 3f 74 0d 01 3f
       0.29527837 -0.03944993 1.3339416 0.5041115
0000d0 83 37 77 3d 15 44 ea bd 4d d9 52 bf 6a 2e 04 be
       0.060355674 -0.11438767 -0.82362825 -0.1290833
0000e0 26 ca b5 3d dd 4c db bd 61 c3 ae bf 06 c3 16 bf
       0.088764474 -0.1070802 -1.3653375 -0.5889133
0000f0 50 35 80 bd 19 4f d3 be 1a db 1e 3f e3 16 cb 3e
       -0.062601686 -0.41271284 0.6205307 0.396659
000100 b3 57 80 3d fd a9 c3 bd b1 87 81 bf 9f 55 81 bf
       0.06266727 -0.09553907 -1.0119535 -1.0104254
000110 82 cd 9d be 1a b9 aa be 16 a3 02 3f cb aa 17 bd
       -0.30820853 -0.33344346 0.510301 -0.037028115
000120 ca 96 26 bd 9c 7f c7 3d 01 2f 60 bf e6 d2 1d bf
       -0.040671147 0.097411364 -0.8757172 -0.6164993
000130 79 db 26 be 7c da 4e 3e 59 70 b8 3f 23 35 3e 3f
       -0.1629466 0.20200533 1.4409286 0.7429983

l1.bias f4 [20]
000000 2e bf 69 3e 15 03 c1 3d 8b d9 9e be c2 8b ca bd
       0.22826836 0.09424416 -0.31025347 -0.09889938
000010 31 6d d8 3e 3a 00 26 3e da 0f ff 3e 01 9c 59 bd
       0.42270806 0.16211024 0.4981678 -0.053127293
000020 95 22 f9 3e ea 14 9f 3e f1 e7 97 be 68 cc 32 3c
       0.48659196 0.31070644 -0.29669145 0.010912992
000030 ae ed 99 3e 1e 9b a3 bb ad 08 a9 3e d6 ed c3 be
       0.30064148 -0.0049928566 0.33014432 -0.38267392
000040 97 83 aa 3e 8a a2 dc be 87 a8 ba 3e 90 69 d2 3e
       0.3330352 -0.43092757 0.364567 0.41096163

l2.weight f4 [2, 20]
000000 49 c4 d8 3c 1e bd b3 3e 96 7a 12 be 5d ad bc be
       0.026460784 0.35105222 -0.14304575 -0.36851016
000010 84 bf 22 bf f1 e2 75 3e 0c 94 2f bf 34 61 94 3d
       -0.6357348 0.24012353 -0.68585277 0.072451025
000020 3a f9 b7 be f9 4d 18 3f f5 18 2d 3c 04 a3 aa bd
       -0.35932332 0.59493977 0.010565032 -0.08331874
000030 21 2b e8 bd 4b 30 92 3e a8 f6 e4 3e 32 87 9f be
       -0.11336351 0.2855247 0.44719434 -0.31157833
000040 eb 45 05 3f 19 4e 3d be 84 8d c6 3e eb d5 df be
       0.5205981 -0.18486823 0.38779843 -0.43717894
000050 e5 b9 95 3d e2 fb a6 be 13 20 91 bd d9 56 c2 3e
       0.07310847 -0.32614046 -0.07086196 0.37956885
000060 56 25 f0 3e 4c fe ad bd 1b fe fc 3e 4c 2f bb be
       0.46903485 -0.08495769 0.49412617 -0.36559522
000070 29 48 fa 3d 61 d6 0e bf fc 7b ef 3d ce b1 93 3e
       0.12220795 -0.55795866 0.1169357 0.28846592
000080 7e 54 dd 3d 18 50 a0 bd 79 4c 0a bf a0 a9 51 39
       0.10807131 -0.07827777 -0.5402294 0.00019994983
000090 98 7f e1 be a3 8a 75 bd f7 e2 a3 be b6 a6 1b 3f
       -0.4404266 -0.059946667 -0.32009098 0.60801256

l2.bias f4 [2]
000000 97 1a 6f bd 93 0d 2e be
       -0.058374967 -0.16997366

l1.weight f4 [20, 4]
000000 be 2f 9f be fa 59 33 3e 1b 02 9b be b4 6d ae 3d
       -0.31091112 0.17514792 -0.30275044 0.08517018
000010 9e b1 af bd 59 d7 4c 3e 23 66 17 be bc ac 04 bf
       -0.085788 0.20004024 -0.14785056 -0.5182607
000020 b8 1c 04 bc 34 2b 92 3e b9 76 06 bf aa 24 62 3d
       -0.008063488 0.28548586 -0.52524906 0.055210747
000030 e4 7d 6e 3e da 24 bd be ec 89 9f be 38 c8 9c bb
       0.23290211 -0.36942178 -0.31159914 -0.00478461
000040 91 c4 51 bf 20 21 b6 be 83 b6 09 c0 d5 b8 37 bf
       -0.8194056 -0.35572147 -2.1517646 -0.71766406
000050 36 d8 59 be 06 49 b5 3e cc 43 ba bd 58 32 aa be
       -0.21273884 0.35407275 -0.090949625 -0.33241534
000060 01 c9 c2 be 45 76 12 3f 29 34 e0 3c a5 51 58 3d
       -0.3804398 0.57211715 0.027368622 0.052812237
000070 77 40 dd bd e5 32 2c be 3e 89 e5 3e 4e 08 ac be
       -0.10803311 -0.1681629 0.4483127 -0.33600086
000080 a9 91 9a be c2 70 dd 3e 9f 1d 0d 3e 94 31 12 be
       -0.30189255 0.4325009 0.13780831 -0.14276725
000090 c7 d0 c9 3e 4f a1 ef be 83 37 66 be 57 4e f3 3e
       0.39417097 -0.46802756 -0.22482114 0.47520706
0000a0 25 32 90 be df 52 80 3d 87 ef af bd e8 81 18 be
       -0.28163257 0.062658064 -0.08590608 -0.14893305
0000b0 a0 35 dc 3d ef c6 1b bd aa ff fc 3e 27 d3 da 3e
       0.10752416 -0.038031515 0.49413806 0.4273922
0000c0 83 1d 81 bf 1e 64 df bd 6c 26 3b 3f e0 e9 f2 3e
       -1.0087131 -0.10907768 0.731055 0.47444057
0000d0 cb a5 dd 3d b4 2c 7e be d1 ac 87 be 8e 25 84 3e
       0.10822638 -0.2482174 -0.26499036 0.25809902
0000e0 ac 7c 1a 3b 2f a3 d2 bd 04 41 f0 be 5c b4 55 bd
       0.0023572845 -0.10285031 -0.46924603 -0.052173957
0000f0 77 0c a5 3f 94 8f fe 3e 79 75 1b bb 76 b1 a6 3e
       1.2894429 0.49718916 -0.0023721142 0.32557267
000100 70 7f 19 bd 69 bd 3d bc 4f 3e 60 bd 78 0e 84 3e
       -0.03747505 -0.011580803 -0.054746922 0.2579229
000110 c3 94 80 3e 02 68 a1 be 0d b1 d0 be 66 ab f4 3d
       0.25113496 -0.31524664 -0.4076008 0.11946754
000120 54 bb 35 3e 92 ea d7 3d c0 3b 03 be ba 02 8b be
       0.17747241 0.105427876 -0.12815762 -0.27150518
000130 3e d7 71 3e 50 95 27 be 96 0c 9f 3e 58 0f 5d be
       0.23617265 -0.16365552 0.3106429 -0.21587884

l1.bias f4 [20]
000000 dd 2f 67 3f 53 06 f0 3e a9 81 4b 3f 34 8f 69 3f
       0.9030741 0.46879825 0.7949472 0.91234136
000010 7d d5 e9 bf 27 96 28 3f d5 dc 4f 3f 57 3d 88 3f
       -1.8268276 0.65854114 0.8119634 1.064372
000020 11 77 67 3f 49 13 3c 3f 23 8c 81 3f ae ac 51 3f
       0.90416056 0.73466927 1.0120891 0.81904113
000030 7c 22 9b bf f3 8b 8b 3f ab 0e 8c 3f 45 32 25 c0
       -1.2119899 1.0902084 1.0941976 -2.5811932
000040 95 04 42 3f 2c c2 56 3f 95 aa 6c 3f cc 8f 12 3f
       0.7578824 0.8389003 0.9244779 0.57250667

l11.weight f4 [20, 2]
000000 d5 bb 26 bf 47 1e 19 3f 3f ba 33 3f da 09 c3 3e
       -0.6513036 0.59811825 0.70206064 0.38093454
000010 ac e7 1a 3e e8 cf 8a 3e 50 c1 f7 be ac 67 2a bf
       0.15127438 0.27111745 -0.48389673 -0.6656444
000020 75 f8 d1 be a8 8e 3a 3e 90 e4 19 3e e1 75 b9 be
       -0.4100987 0.18218482 0.15028596 -0.36222747
000030 c8 bf b9 bd 0a e7 b0 3e 76 23 92 be 49 cc 16 3f
       -0.090697825 0.3455127 -0.2854268 0.58905464
000040 a9 4c b8 be a0 63 e0 bc 9e ac e5 3e 20 08 7d 3d
       -0.35995987 -0.027391255 0.4485826 0.061775327
000050 3d 70 09 3f e4 52 06 bf 58 fd 8c bd a0 26 bd 3d
       0.5368689 -0.5247023 -0.06884259 0.09235883
000060 af 40 26 bf 7d 76 30 3f 4a 34 8f 3e f4 03 d7 be
       -0.6494245 0.689308 0.2796958 -0.41995203
000070 d0 19 5e bd 15 56 e3 be 57 f6 2f bf 38 f6 84 3d
       -0.054223835 -0.44401613 -0.6873526 0.06492275
000080 3e 4e e5 3e c0 47 01 3d c4 fd 08 bf 64 4a fe be
       0.44786257 0.031562567 -0.53512216 -0.4966613
000090 c6 ca b6 3e 7e c4 a4 3e ae 80 9f 3e b1 10 94 be
       0.3570158 0.32181162 0.31152862 -0.28918985

l11.bias f4 [20]
000000 ab bd 06 3f f0 2b 31 bf c0 e6 d8 bd fa 9d 2d bf
       0.5263316 -0.6920767 -0.10590887 -0.6781918
000010 a5 6b 33 3f a2 dc 0a bf 3b 49 21 3f 8a 0f 77 be
       0.7008613 -0.5424291 0.63002366 -0.24127021
000020 ba 3e b5 3e af d7 07 3f ca 70 a4 3e b0 bc 18 3d
       0.3539942 0.5306348 0.321173 0.03728932
000030 c8 44 fc be df 75 02 3f 05 4f 1b 3f 20 1b 1f 3e
       -0.49271226 0.50961107 0.6066745 0.15537691
000040 78 f6 23 be 78 af 2d be ad ba 0c 3f 8a 72 a1 3e
       -0.16011989 -0.16961467 0.54972345 0.315327

l2.weight f4 [1, 20]
000000 8c 59 24 3f 6e 20 c3 3e 84 d6 77 3f 65 80 33 3f
       0.6419914 0.3811068 0.968117 0.7011779
000010 9a e5 ec bf 2d b7 1d 3f f7 50 4b 3f 75 bd 09 3f
       -1.8507569 0.6160763 0.7942042 0.53804713
000020 9c 59 f2 3e db 67 1d 3f d7 c6 25 3f 5d 8e 4f 3f
       0.47333992 0.61486596 0.6475653 0.81076604
000030 79 2a c1 bf 09 9d f1 3e f8 04 1a 3f ea 5d 4f c0
       -1.5091087 0.4719012 0.6016383 -3.240107
000040 ea 61 82 3f c3 e6 54 3f 53 cc 23 3f 7d 40 56 3e
       1.0186131 0.83164614 0.6398365 0.20923038
