AC/ac_checkpoint.pth (torch_old, 2387 bytes, 7 tensors)

l1.weight f4 [20, 4]
00000000: f23f e33d ed21 05bd 8312 8e3e 513f 053e
00000010: 97d6 7d3f 937b 563f 59f8 7ebf 0fb4 e1be
00000020: 30b6 9cbe e56f 28be 2f98 dc3d 8a81 513d
00000030: bf1e f3bf 23ff b03e d325 8e3f 6df7 11bf
00000040: af16 fe3d bdb5 663f 4a28 233f 926f 34bf
00000050: 3cfd 81be c41e 773d cab6 5e3f 31e0 0dbf
00000060: 2ca0 5c3f b601 16c0 9a28 f53f 8bc8 2f40
00000070: 9f76 363d 9bfc 533e 3634 313f 2e09 933c
00000080: b135 a0be 9fe6 123e 0646 10be db37 393d
00000090: 04a0 bcbc c8c0 99be 7731 4c3d 4d9e acbd
000000a0: b80d a9be fa0f cd3e 9fd7 f4be dd1d c5bd
000000b0: d3ac 80bf 799f 0c40 0007 d8bf 7649 01c0
000000c0: 9069 673f d9b4 fc3e 5047 6ebf 6d2a 5f3e
000000d0: f267 3cbe 4fc7 653e 991e a53e 71c0 3fbb
000000e0: 088e b4be 1eaf 3140 ab28 5bbf ba77 b2bf
000000f0: 895d b1be 6dd0 8d3e 75a9 2abf 6a98 b83d
00000100: 019e 8dbe 535d 0b40 2ec1 11c0 8d92 13c0
00000110: 0dd4 c3be 4fd7 41be b3d1 433f bc46 013d
00000120: 2ce0 873f 93d8 e33f 92ca 9fbe 59ea 12bf
00000130: d1ca fdbd 4068 cc3d 7e6a ca3d 547e 123e
0.11096181 -0.032503057 0.27748498 0.13012435 0.99155563 0.8378231 -0.995977 -0.44082686
-0.30607748 -0.16448934 0.10771214 0.05114893 -1.8993758 0.34569654 1.1105293 -0.57018167
0.1240667 0.9012106 0.6373335 -0.7048274 -0.25388515 0.060332075 0.86997664 -0.55420214
0.861819 -2.3438544 1.9153016 2.7466152 0.04454672 0.2070183 0.6922029 0.017948713
-0.31290963 0.14345787 -0.14089212 0.045219284 -0.02302552 -0.30029893 0.04985186 -0.08428631
-0.3301828 0.40051252 -0.47820756 -0.096248366 -1.0052742 2.1972334 -1.6877136 -2.0201087
0.9039545 0.49356726 -0.93077564 0.21793528 -0.18399027 0.22439311 0.32249907 -0.002925899
-0.3526461 2.7763133 -0.8560893 -1.3942788 -0.34641674 0.2769808 -0.6666482 0.09013446
-0.2765961 2.177571 -2.2774158 -2.3058197 -0.3824772 -0.1892979 0.7649185 0.0315616
1.0615287 1.7800468 -0.31209236 -0.57388836 -0.123922 0.099808216 0.09883593 0.14306003

l1.bias f4 [20]
00000000: 3673 15bf 2d68 06bf e272 99bf 0198 1fc0
00000010: d35c 3cbf a97a 50bf b4b8 5c40 3216 4fbf
00000020: fc19 3dbf 201c 95bf 5678 93bf da5f 97bf
00000030: 3fd6 3fbf f791 55bf 8f36 0bbf fb32 32bf
00000040: d178 8e3e d69f 8bbf 7ab8 4fbf 56ab 01bf
-0.5837892 -0.5250271 -1.1988184 -2.4936526 -0.7357914 -0.81437165 3.4487734 -0.8089324
-0.73867774 -1.1649208 -1.1521099 -1.1826127 -0.7493629 -0.8342585 -0.54380125 -0.6960904
0.2782655 -1.0908153 -0.81140864 -0.5065206

l2.weight f4 [2, 20]
00000000: e849 e13c 63b4 56be 9803 99bc f841 90bd
00000010: 1c8b 0c3e 4d48 88be 9600 66c0 254c 583c
00000020: 85db a53e 948e 24be a657 98bd 5831 c1be
00000030: baa7 dd3e b616 c93e f780 18bf f423 fa3b
00000040: f206 fb3c fa47 013d 5fb7 ddbd 27c2 00bd
00000050: cbb6 783e 329e d93e 205d afbd 52d4 263e
00000060: 8d19 1c3e e06b 923b 20d9 6040 320c cabc
00000070: 9db2 68be d2ca fc3d a1a2 3c3e 3b75 683e
00000080: e6fe 01bf 0faf 11be 1bd8 ef3e 0a9a 3f3e
00000090: cace 663c ebc6 35be 6fdc 283e 4ff1 7a3e
0.027501062 -0.2096725 -0.018678471 -0.070438325 0.13724941 -0.2661766 -3.5937858 0.013201748
0.32394043 -0.16070014 -0.074385926 -0.3773296 0.43292028 0.3927514 -0.59571785 0.0076336805
0.03064296 0.031562783 -0.10825991 -0.031435158 0.2428848 0.42503506 -0.08562684 0.16291931
0.15244122 0.004468426 3.5132523 -0.024664018 -0.22724386 0.123433724 0.18421413 0.2270097
-0.5077957 -0.14226936 0.46844563 0.18711105 0.014087388 -0.17751662 0.16490339 0.24506114

l2.bias f4 [2]
00000000: 7cf3 e1bf d810 eb3f
-1.765243 1.8364515

l1.weight f4 [20, 4]
00000000: 106b 093f 7260 90be 17ed c1be 2ddb e7be
00000010: 8f07 4e3e 4b37 f9bd 1b8b 6dbe 321a 993e
00000020: 3c6e 023f ed4a d5be 5c1e bdbe c5ed eabe
00000030: fe2b f3be 725f 133e ef62 d53f 82a7 eabe
00000040: 8802 c33e 12b1 96be 016d fa3e eac4 0b3d
00000050: 79d0 c3bf 8051 993e de0b 5f40 b61d d0be
00000060: b80e 403f 53d8 4fbf a223 27bf 0839 34bf
00000070: 3300 d8bf 25a1 c53e 2e0b 9d40 9b9d d43d
00000080: e0fe ae3f 7a0f 7dbf f1ba 97bf b9cd fbbe
00000090: 140d 7bbf 5479 e53e 65d5 5940 d3f4 a4be
000000a0: d38a 8c3d 671b 66be 4ba0 96be ab75 67be
000000b0: 2a52 e2be d09e 033f c87c 893f 3ef3 2e3e
000000c0: 2f6f 87bf 1d72 a93f 1577 4540 0eb8 b33f
000000d0: 59fe 103f 0273 87bf 3ee2 17c0 e2a2 04bf
000000e0: ad61 a3be 4356 333a c069 babe 1bdc 8cbe
000000f0: cf5e 0cbd ca20 933d b9ce 1e3f 58a1 cfbd
00000100: 8d76 ba3e f1d6 323d 61be 0d3e 41de 793e
00000110: 9cfb 243f 349e 2bbf aeda 15c0 afd3 1ebe
00000120: 1a29 113e 8817 aebd 22c1 843e 841e e43c
00000130: 84b9 d43e 1254 b6be 0f5d 953e 0e59 10bd
0.5367899 -0.28198582 -0.37876198 -0.45284405 0.20120071 -0.121687494 -0.23197596 0.29902798
0.50949454 -0.41658726 -0.36937225 -0.4588453 -0.474945 0.14391878 1.6670817 -0.45830923
0.3808787 -0.2943197 0.48911288 0.03412334 -1.5297996 0.29944992 3.4850993 -0.40647668
0.7502246 -0.8118946 -0.65288746 -0.7039952 -1.6875061 0.38599506 4.9076147 0.10381623
1.3671532 -0.9885174 -1.1853925 -0.4918039 -0.9806683 0.4481913 3.4036496 -0.32218036
0.06862416 -0.2247139 -0.2941917 -0.2260348 -0.4420331 0.51414204 1.0741205 0.17084977
-1.0580806 1.323795 3.0853932 1.4040544 0.56638104 -1.0581973 -2.3731837 -0.5181104
-0.31910458 0.0006841162 -0.36408806 -0.27511677 -0.034270104 0.071839884 0.62034184 -0.10138196
0.36418572 0.043662015 0.13842155 0.2440119 0.64446425 -0.67038274 -2.3414721 -0.15510438
0.14175835 -0.08500582 0.259286 0.027846582 0.41547787 -0.35611016 0.2917256 -0.03524118

l1.bias f4 [20]
00000000: e9fd a3bf 07ca 9ebf 3a9a a4bf e945 ddbf
00000010: 305e 95bf 30b9 36c0 083c ddbf c553 d7bf
00000020: 0f32 f9bf a0c3 16c0 fdb6 21bf aedf fdbf
00000030: 6e02 2ebf 152d 09c0 a996 bfbf 4133 87bf
00000040: 2b40 a7bf e29e 06c0 7ea4 1ebf aacc a5bf
-1.2811862 -1.2405404 -1.2859566 -1.728696 -1.1669369 -2.855053 -1.7283945 -1.682244
-1.9468402 -2.35569 -0.6316984 -1.9833887 -0.6797246 -2.1433766 -1.4967853 -1.0562516
-1.3066458 -2.1034474 -0.61969745 -1.2953084

l2.weight f4 [1, 20]
00000000: 3e7d a53d a5d4 a4bd 183b ec3d 5c69 113e
00000010: 12d0 7cbe 24bb 1ebe c742 3cbe b4dc c0bd
00000020: c601 c73e 82e4 ed3d a69a 7b3e beb4 2cbf
00000030: 3a31 03bf 65b7 86be e3cd 153f 47ca 183e
00000040: 33a6 67bd 3972 6a3e 5f87 57bd 47a2 d43a
0.08080529 -0.08048371 0.11534709 0.14200348 -0.24688748 -0.15501076 -0.18384849 -0.09417096
0.3886854 0.1161585 0.24570712 -0.6746329 -0.5124699 -0.26311794 0.58517283 0.14920913
-0.056554984 0.22895135 -0.052619334 0.0016222679
