DQN/DuelDQN_checkpoint/DuelDQN.pth (torch_old, 1674 bytes, 5 tensors)

l1.weight f4 [20, 4]
0	0xbe9c1ce4	-0.30490792
1	0x3d3f3190	0.046678126
2	0x3f45abf0	0.7721548
3	0x3eddd127	0.43323633
4	0xbe67894c	-0.22610968
5	0x3d270a2e	0.040781192
6	0xbe85f795	-0.26165453
7	0xbdd77f61	-0.105223425
8	0xbe753652	-0.23946503
9	0x3ee27808	0.44232202
10	0xbe013141	-0.12616445
11	0xbe70f238	-0.23529899
12	0xbebd944a	-0.37027198
13	0x3e7068c1	0.2347746
14	0x3ebde675	0.37089887
15	0x3f3ddba5	0.74163276
16	0xbedf4834	-0.43609774
17	0x3ef41704	0.4767381
18	0x3f0a1727	0.5394158
19	0xbdc12b71	-0.09432114
20	0x3e955156	0.29163617
21	0x3f0188de	0.5059947
22	0x3f45126b	0.7698123
23	0x3ed6ea86	0.41975802
24	0xbdae3089	-0.08505351
25	0x3e177c76	0.14793572
26	0xbe38ea72	-0.18058184
27	0x3e71beb2	0.236079
28	0x3ea4c674	0.32182658
29	0xbd5b078b	-0.05347399
30	0xbddc8a5d	-0.10768578
31	0xbe6fbe8d	-0.23412533
32	0xbe23205a	-0.1593031
33	0xbdc505c1	-0.09620238
34	0x3e922b70	0.28548765
35	0x3eca1622	0.3947001
36	0x3e89a369	0.26882485
37	0x3ea62d7e	0.32456583
38	0xbe1c1153	-0.15240984
39	0x3e258e37	0.16167532
40	0x3e21c0e6	0.15796241
41	0x3e5556ef	0.20833944
42	0x3dd1bc9f	0.10241055
43	0x3e9a61b7	0.30152676
44	0xbe7c124f	-0.24616359
45	0x3ed21a29	0.41035584
46	0xbdbde8d4	-0.09272924
47	0x3eca311b	0.3949059
48	0x3e8586c5	0.26079383
49	0xbdf5b457	-0.11997288
50	0xbd3a25b3	-0.04544611
51	0xbe83ddd0	-0.25755167
52	0xbe185336	-0.14875492
53	0xbecdc09a	-0.40186006
54	0x3ee3334b	0.4437507
55	0x3e82d348	0.2555182
56	0x3ec2eaa1	0.38069633
57	0xbe98a26c	-0.29811418
58	0x3eafb1b3	0.3431526
59	0xbe58c8a4	-0.21170288
60	0xbe0dd410	-0.13850427
61	0xbe126f5c	-0.14300293
62	0xbf8358a2	-1.0261424
63	0xbf1ff88b	-0.6248862
64	0xbe92cb34	-0.28670657
65	0x3e48852e	0.19582054
66	0x3dfb7386	0.12277894
67	0x3e836e44	0.25670063
68	0xbe86c81b	-0.26324543
69	0xbcb68fdb	-0.022285393
70	0xbf4fccc5	-0.8117183
71	0xbec72fd5	-0.3890368
72	0x3e6471f2	0.22309092
73	0x3d21ba08	0.039484054
74	0x3e9c5b78	0.30538535
75	0x3e9970dc	0.29968917
76	0x3e7ab1dd	0.24481912
77	0x3d8fc21f	0.070194475
78	0xbd472c81	-0.048626427
79	0x3f0a0409	0.5391241

l1.bias f4 [20]
0	0xbe812d14	-0.25229704
1	0x3f24eafa	0.64421046
2	0x3e6f79d0	0.23386312
3	0xbc7e671a	-0.015527511
4	0xbe77a1cf	-0.24182819
5	0x3dbc2a52	0.091877595
6	0x3f23cc95	0.6398404
7	0xbed41a60	-0.41426373
8	0x3f345108	0.70436144
9	0xbd1ad8c7	-0.03780439
10	0x3eb47ec9	0.3525298
11	0x3f11e8be	0.5699576
12	0xbef711a7	-0.48255655
13	0x3e9857a6	0.2975437
14	0x3cbaa018	0.022781417
15	0x3e7483fa	0.2387847
16	0xbee2947c	-0.4425391
17	0xbec7f785	-0.3905603
18	0x3f4627b4	0.7740433
19	0xbe9282c1	-0.28615382

l2.weight f4 [2, 20]
0	0xbebfb1b6	-0.3744027
1	0x3dd06530	0.1017555
2	0xbe251f9f	-0.16125344
3	0xbda4529a	-0.080235675
4	0x3e13dbf4	0.14439374
5	0xbe1e34d8	-0.15449846
6	0xbe48fca7	-0.19627629
7	0x3e46cd4b	0.1941425
8	0xbdf3f330	-0.11911619
9	0x3e4d92da	0.2007555
10	0xbe295817	-0.1653751
11	0xbe1dce6f	-0.1541078
12	0xbe84992e	-0.25898117
13	0xbd284cdd	-0.041088928
14	0x3e236653	0.15957002
15	0xbdd5f05a	-0.10446234
16	0x3ddc80a1	0.107667215
17	0xbea746f1	-0.32671311
18	0x3d699828	0.057029873
19	0xbe5bd29d	-0.21467061
20	0xbe8a49b9	-0.2700937
21	0x3d74a1d0	0.05972463
22	0xbe15926d	-0.14606638
23	0x3b5adce6	0.0033395826
24	0x3e854778	0.2603109
25	0xbe22c49e	-0.15895316
26	0xbe0f9e54	-0.14025241
27	0xbde9f81c	-0.11424276
28	0xbd7134f7	-0.0588884
29	0x3e67b554	0.22627765
30	0xbec7d0f9	-0.3902662
31	0x3d27f501	0.04100514
32	0xbda1119b	-0.07864686
33	0xbd74f98f	-0.05980831
34	0x3e6dd7c1	0.23226835
35	0xbe882e27	-0.2659771
36	0x3e095a61	0.13413383
37	0xbe0369e2	-0.1283336
38	0x3db2cd18	0.08730525
39	0x3ca82292	0.020524297

l2.bias f4 [2]
0	0x3e0a1907	0.1348611
1	0x3d7d1dc5	0.06179597

l3.weight f4 [1, 20]
0	0xbede4e0d	-0.43418923
1	0x3eba68d5	0.36408105
2	0x3ea2df4c	0.31810987
3	0xbe49e56d	-0.19716425
4	0x3ec3ef2c	0.3826841
5	0xbe2b477e	-0.16726491
6	0x3eefca26	0.46833915
7	0xbdd7c1e6	-0.1053503
8	0x3e124de5	0.14287527
9	0x3dfdb4dc	0.12388012
10	0xbed5bfa7	-0.41747782
11	0x3e84e8d0	0.25958872
12	0x3d4d10ae	0.050064735
13	0xbe16431e	-0.1467404
14	0x3e9b0fdd	0.3028554
15	0xbea2bc52	-0.31784302
16	0x3e043a45	0.12912853
17	0xbee87eb2	-0.4540916
18	0x3e9e8b43	0.30965623
19	0x3e2ddcb6	0.16978726
