A3C/a3c_ckptfinal.pth (torch_old, 7464 bytes, 5 tensors)

l1.weight f4 [200, 4]
000000 4a 34 7e 3e ea 80 c3 3e cf c3 e4 bd c6 2d 98 3e
       0.24824634 0.3818429 -0.1117016 0.29722422
000010 15 17 a5 3d 58 c6 b2 3d 36 c0 fe 3e 78 28 9b be
       0.08061043 0.08729237 0.4975602 -0.30304313
000020 9c c7 8e be 62 4d 10 bd 16 6d 70 3d fc 54 e5 be
       -0.27886665 -0.035230048 0.058697782 -0.447914
000030 a5 d7 8e 3e 9d 06 a2 3e 24 0a cc 3e 7f 42 e4 3e
       0.278989 0.3164567 0.39851487 0.44581982
000040 54 14 b7 bd c1 ba b5 3e b6 03 90 ba 61 93 80 3e
       -0.08939424 0.35494044 -0.0010987434 0.2511244
000050 44 ca ab 3c 22 1b 61 be fe a1 08 bf 1c d8 82 bd
       0.020970471 -0.21983007 -0.5337218 -0.06388876
000060 d0 b1 c5 3e 39 2a ba 3e 6f b6 ee 3d ca 07 68 3e
       0.38612223 0.36360338 0.1165589 0.22659221
000070 50 8a 0f 3d 1f c7 5e be 93 2f 6d 3e aa 7f fa 3e
       0.035044014 -0.21755646 0.2316268 0.48925525
000080 4c 1c eb 3e e2 99 02 3f 79 90 ee 3e 10 f7 ee 3e
       0.45920026 0.51016057 0.465946 0.4667287
000090 47 f8 fc 3c d1 84 b2 3e 17 1b 73 3c 90 aa e1 3e
       0.030880107 0.34866956 0.014838002 0.4407544
0000a0 24 d2 ed be e9 eb 43 3d 19 f0 dd bd 4c ce d6 be
       -0.46449387 0.047832403 -0.108368106 -0.41954267
0000b0 2c 63 b4 3e db 67 67 3e bf 29 85 be 4a 0b c4 3d
       0.35231912 0.22598211 -0.26008412 0.09572466
0000c0 d2 59 5d 3e f9 3d 99 bd 68 1c ca be 2a 2a da be
       0.21616295 -0.074825235 -0.39474797 -0.42610294
0000d0 20 a3 10 be 5e c9 80 3e ae f8 69 3e 1d 56 fe 3e
       -0.14124727 0.2515363 0.2284877 0.49675074
0000e0 58 a5 be 3e a6 4a d3 bc 5e bb 64 be 89 71 85 3e
       0.37235522 -0.025792431 -0.223371 0.26063183
0000f0 eb 09 b5 3d f9 22 b9 be 76 93 bb be 47 e3 b6 be
       0.08839782 -0.36159495 -0.3663594 -0.35720274
000100 19 c6 a0 bd 1b 91 20 be 4a 86 90 be 88 3b 2e 3e
       -0.07850284 -0.15680353 -0.28227454 0.17014897
000110 07 a8 a4 be 7e 8d 96 be 25 e8 9e be b9 3f f3 3e
       -0.32159445 -0.29404825 -0.31036487 0.47509554
000120 a3 0a 83 be 4a d4 26 3e 61 34 65 3e 92 c5 e1 3e
       -0.25594053 0.1629192 0.22383262 0.44096047
000130 d4 4f 28 3c d3 ac 06 be eb 12 d3 3e ff 31 81 3e
       0.010272939 -0.13151865 0.4122537 0.25233456
000140 7d 25 e6 bd c4 e8 ab 3e 6d f0 92 be ea 39 33 3d
       -0.11237619 0.33576024 -0.28699055 0.043756403
000150 69 83 66 3e c8 52 77 be 28 48 6e 3e d7 56 31 be
       0.22511066 -0.24152672 0.23269713 -0.17318283
000160 31 d1 9e be 24 09 31 3e 44 40 da be cf 14 5b be
       -0.31018975 0.17288643 -0.42627156 -0.21394657
000170 72 01 f7 3d ff bc d8 3e c7 51 b4 3e 17 bc ef be
       0.120608225 0.42331693 0.3521864 -0.4682319
000180 d5 9e cf 3d 85 52 7f 3d e2 c5 74 be 0a c2 48 bd
       0.10137717 0.062334556 -0.23903611 -0.049013175
000190 37 23 01 bf b4 4e 0e bf 36 6f 1b 3f 54 8f ad 3e
       -0.5044436 -0.5558884 0.6071657 0.33898413
0001a0 1e fe a9 be 0e 3b b8 bd e2 c1 0b 3d a7 8d 5f 3d
       -0.3320169 -0.08995639 0.034120448 0.05457845
0001b0 b8 9a 11 bf 5d 01 47 bd f0 20 bb bd f5 27 bb 3e
       -0.5687671 -0.048585285 -0.09137142 0.36553922
0001c0 04 e4 e7 3e 49 5c 15 be e7 c1 be be f5 bf 6a 3d
       0.4529115 -0.14585985 -0.3725731 0.05731197
0001d0 4c 16 c3 be 3b 17 03 3e ed 7e 9e be e4 8b 20 bb
       -0.3810295 0.1280183 -0.30956212 -0.0024497444
0001e0 48 a6 aa 3e b5 cc 13 bd 1c 16 c6 3e 0b 76 d6 3e
       0.33329988 -0.036083896 0.38688743 0.41886935
0001f0 4f e9 0e bf 63 72 8b 3e 4d 41 d9 3e 39 0f c1 3e
       -0.5582475 0.27235708 0.42432633 0.37706926
000200 e4 aa e1 be 4f 0c ff 3e bd 1e 5c be d4 14 3e 3e
       -0.44075692 0.49814078 -0.214961 0.18562633
000210 4b db 3a 3e cb 56 d1 3e 92 42 7d be de ae 18 3e
       0.18247716 0.4088653 -0.24732426 0.14910457
000220 23 ce c2 3b 04 31 b1 be a0 9c 0a bf 80 fd 92 bd
       0.0059449836 -0.34607708 -0.5414524 -0.071772575
000230 9b 1d 50 3d a5 9c 89 3e 07 42 93 3d 3f bc a7 bd
       0.050809484 0.26877323 0.07190328 -0.08190202
000240 2e 75 0a 3d e5 cb 49 be 23 14 bb be ce a1 42 3e
       0.033803158 -0.19706686 -0.365388 0.19007036
000250 1d 0c 56 be f1 74 42 be 5f 75 9d be eb 46 e2 3d
       -0.20903058 -0.18989922 -0.3075361 0.11048683
000260 7d 55 68 3e 86 0f 6f be c5 1d 31 3e e7 b6 fd 3e
       0.22688861 -0.23345765 0.17296512 0.49553606
000270 c5 69 ff be 29 d7 c4 be ed f4 c3 be 1d b5 d0 be
       -0.49885383 -0.38445404 -0.382728 -0.40763178
000280 69 ed 9c be c5 7e e2 3e 2c 91 a4 3c d6 87 63 bd
       -0.3064988 0.44237342 0.020088755 -0.055549465
000290 56 c1 a6 3d 70 6b 0f be 3f 4d 02 3f 1d 47 ff be
       0.08142345 -0.14005828 0.5089912 -0.49858943
0002a0 d1 0b a9 be 0d e4 a4 3d ff 5d b5 be 43 b1 99 be
       -0.33016828 0.0805131 -0.35423276 -0.30018052
0002b0 c2 5b 1d 3f 49 c6 d6 3e 54 39 b9 be 2b 5c 4b bd
       0.61468136 0.41948155 -0.3617655 -0.049648445
0002c0 a3 14 39 3e d7 6f b1 be 1e 75 0d bf d6 ca 91 3e
       0.18074279 -0.3465564 -0.5525683 0.28475064
0002d0 95 a8 f0 3e 5f 3b e5 be 7f a1 48 be f9 92 9f 3e
       0.47003618 -0.4477186 -0.19592856 0.3116682
0002e0 e7 06 3c 3c 35 9d 14 3e e6 e1 b4 3e f7 d7 83 3e
       0.011476255 0.14513095 0.35328597 0.25750706
0002f0 37 72 d2 3e 6b 57 63 be ca 15 fa be 99 b1 f2 3e
       0.41102764 -0.22201316 -0.4884475 0.4740112
000300 ec a7 00 be 81 76 02 bf 90 10 97 bd 7f 1e e7 3e
       -0.12564057 -0.5096207 -0.07376206 0.45140454
000310 bf c4 0e be 2d c5 47 be 17 ce 93 3d af 6d 87 3e
       -0.1394224 -0.1950881 0.07217043 0.2645087
000320 e2 a1 a0 be 7d bf d1 3e 61 99 68 bd bf 6e ac 3e
       -0.31373507 0.40966406 -0.0567869 0.33678243
000330 6e 35 56 be bf 52 92 3e a3 fd cd 3e 07 2e f6 bd
       -0.2091882 0.28578755 0.40232572 -0.12020498
000340 e3 35 92 bd 69 8e 09 3f f4 d7 85 3d ad 35 fb 3e
       -0.07139184 0.53732926 0.065353304 0.4906439
000350 74 29 15 bf d2 ea f9 be a1 60 95 be 4b 54 81 be
       -0.5826638 -0.48811966 -0.29175285 -0.25259623
000360 e0 56 d5 3e cb fb 4b be 67 02 b0 be 91 be 09 bd
       0.41667843 -0.1992027 -0.34376833 -0.033629004
000370 ac 17 4c 3e bc 93 0a 3e 3d 37 34 be ef c1 b7 bd
       0.19930905 0.13532919 -0.17599197 -0.08972537
000380 81 76 c0 be d6 bd 46 3e 8c 58 6e be 22 07 3f 3e
       -0.3759041 0.19408354 -0.23275965 0.18655065
000390 12 e3 b1 3e f6 fa cb bd f1 e6 ba be 09 45 a7 3e
       0.34743553 -0.099599764 -0.3650432 0.32669857
0003a0 4b 85 21 3f f6 64 7b 3e 26 33 34 3e d1 f7 cd 3e
       0.63094014 0.24550232 0.17597637 0.4022813
0003b0 9d cc cf 3e 1d 66 3b be 10 85 8c bd e5 30 88 be
       0.40585795 -0.18300672 -0.06861317 -0.26599804
0003c0 63 8e f3 be 34 55 19 3f d4 ff 55 3d e7 46 e3 be
       -0.4756957 0.59895635 0.05224593 -0.44390032
0003d0 f8 71 19 3e 00 70 7c 3e a0 a1 f7 be a3 d5 23 3e
       0.14984882 0.246521 -0.48365498 0.15999465
0003e0 65 3a a7 be fc 24 89 3e 52 f7 af be d2 d8 65 3e
       -0.3266174 0.2678603 -0.34368378 0.22445992
0003f0 d0 ae 2e 3e 4d 6c 61 be d5 6b 7f 3e 2f 14 46 3d
       0.17058873 -0.2201397 0.24943478 0.048359092

l1.bias f4 [200]
000000 83 b7 f3 3e a6 d8 ef be d2 fe 13 be 9a 86 be 3e
       0.47600946 -0.46844977 -0.14452675 0.37212068
000010 89 62 18 3f 19 31 16 3f b8 c4 a8 be 0d ec 91 be
       0.5952535 0.5866867 -0.32962584 -0.28500405
000020 5f 12 cf be 7f 19 e6 3e 13 2a f3 be 74 e3 2b 3f
       -0.40443704 0.44941327 -0.47493038 0.6714394
000030 7b 1e 33 3f 8d 95 9d bd d0 c2 ff bc 55 6c 71 be
       0.69968385 -0.0769454 -0.031220824 -0.23576482
000040 57 07 04 bf 21 92 19 be b5 14 0b 3f 32 66 b8 3e
       -0.515737 -0.1499715 0.5432847 0.3601547
000050 81 ab ab 3e 93 08 32 3f 53 f2 20 3f f7 70 f2 3e
       0.33529285 0.69544333 0.6286976 0.4735181
000060 41 cd a9 3e ca 8f be be 18 04 30 3f 8b 33 7c be
       0.3316441 -0.37219077 0.68756247 -0.24629037
000070 33 65 91 bd ce 75 98 be 1c f3 11 3f ea 37 14 bd
       -0.0709938 -0.29777378 0.5701158 -0.036186136
000080 5a b2 84 3e 4d 80 bd 3e 4e d2 29 3f 06 29 1f 3f
       0.2591732 0.37011948 0.66336524 0.6217197
000090 be cf b7 3e cf f8 34 3f 7e a5 24 3f a3 06 d1 be
       0.35900682 0.7069215 0.6431502 -0.40825376
0000a0 4d 85 15 3f ef 6d 62 3e 1e 89 dc be bb 93 b0 be
       0.58406526 0.22112249 -0.43073362 -0.3448771
0000b0 61 1e 32 3f 16 12 96 3e 6b eb 01 bf 35 eb 1b bd
       0.69577605 0.29310673 -0.50749844 -0.038066108
0000c0 c7 63 ad be 69 40 34 3f 33 5d 34 3f c8 fb 2c 3f
       -0.33865187 0.7041078 0.7045471 0.6757169
0000d0 f6 06 b1 be 98 df 83 bd 36 88 31 3f 74 ca 37 be
       -0.34575623 -0.064391315 0.69348466 -0.17948323
0000e0 a1 5f 0e 3f be 10 00 3f 49 86 2e be 81 fb 24 3f
       0.5561467 0.50025547 -0.17043413 0.64446265
0000f0 f7 25 b1 bc 4c a2 5e be e7 e4 19 3f 9b 16 4c 3e
       -0.021624548 -0.21741599 0.601149 0.19930498
000100 aa 09 12 3f af ea 7d be 1f ac f5 3e b3 1c df be
       0.57045996 -0.24796556 0.4798288 -0.43576583
000110 a1 c9 d5 be 54 cd 7b 3e 39 3f 9d be f2 9f bf 3e
       -0.41755393 0.24590045 -0.30712298 0.37426716
000120 28 07 e0 3e 65 b2 22 bd aa e6 8d be 40 94 00 3f
       0.4375546 -0.03972091 -0.27715045 0.5022621
000130 c9 63 e2 be 2b b6 0e 3f b8 02 78 be 12 5b 24 3f
       -0.44216755 0.55746716 -0.24219787 0.6420146
000140 b5 24 4d be 31 6b 6b be fb 48 c2 bd 3e 38 d0 3e
       -0.20033534 -0.22990109 -0.09486576 0.4066791
000150 ad 1c c9 be 12 21 21 3f 27 9c 3b bd 12 e1 96 3e
       -0.3927969 0.62941086 -0.045803215 0.2946859
000160 64 fa 23 3f 80 fa ae be 50 12 5e be 67 64 8b 3e
       0.6405394 -0.3417549 -0.21686673 0.27225038
000170 06 ab e1 3e 0f bb ad bd fb c0 e6 3e 05 4a 26 3f
       0.44075793 -0.08482944 0.45069107 0.64956695
000180 5c ec 12 3f 9c ad 1c 3f 74 c6 19 3f ac bc e9 be
       0.57391906 0.61202407 0.6006844 -0.45651758
000190 dc c8 e5 3e 2c 37 0d 3f 23 fd 4c 3e 38 c1 33 3f
       0.44879806 0.5516231 0.20018439 0.70216703
0001a0 e6 39 09 3f 5d a9 79 be 19 ec e1 be 38 91 ce 3e
       0.5360397 -0.24381013 -0.4412544 0.40345168
0001b0 93 e8 a1 bd 97 ca 5e 3e 85 f7 71 3e 22 cf 2a 3f
       -0.07905688 0.2175697 0.23629577 0.6672231
0001c0 18 a5 ef 3e e5 59 b8 be 4d db 05 3f 8b c1 ea be
       0.46805644 -0.36006084 0.5228775 -0.45850787
0001d0 c3 5b f1 3d aa ed 1e 3f e2 d4 0b 3f d4 5b ef be
       0.1178508 0.62081397 0.5462171 -0.46749747
0001e0 05 86 5f bd 84 a6 a5 be cc 78 10 3f 76 c8 74 3e
       -0.05457117 -0.32353604 0.5643432 0.23904595
0001f0 54 b4 4a be 0a 41 46 bd a7 32 2a be a3 4d 34 be
       -0.19795352 -0.04840187 -0.16620885 -0.17607741
000200 43 39 64 3e d0 88 25 3f f1 bb 34 3f 4d 04 be 3d
       0.22287469 0.64661884 0.70599276 0.09278164
000210 13 ab 21 bd b3 ef b4 be 36 38 ad 3e db 9f 8c bd
       -0.03946979 -0.35339126 0.33831948 -0.068664275
000220 bb 27 4e bd 21 63 e0 be 9a 1d db be a5 a3 b6 3e
       -0.05033086 -0.4382563 -0.42796022 0.35671726
000230 66 56 3b 3f a1 d5 cf 3e 82 12 02 3f 4a 32 23 3f
       0.7317871 0.40592673 0.5080949 0.6374861
000240 b2 ee 08 3f e8 e7 52 3e 93 a7 bc bd 84 7c 53 be
       0.5348922 0.20596278 -0.0921165 -0.20652968
000250 b2 9f d4 3e 6b 5b eb be ac ec 17 3d 26 34 10 3f
       0.41528088 -0.45968184 0.037090942 0.5632957
000260 6c e8 8f 3e 97 85 c4 3e d8 dd 2a be b2 0d 1a 3f
       0.2810701 0.3838317 -0.16686189 0.6017715
000270 32 49 04 bf 80 b3 b8 3e 5a b2 29 3f e4 1d 11 3f
       -0.5167419 0.36074448 0.6628777 0.56686234
000280 eb d1 90 be 69 66 84 3d a0 da c8 3e 47 35 19 be
       -0.28285155 0.06464846 0.39229298 -0.1496173
000290 2d c9 ad 3e 54 5b 8f bd 15 46 aa 3e c7 55 ce 3e
       0.33942547 -0.06999841 0.33256593 0.40299818
0002a0 0c b2 77 bc d0 ad 15 3f 2b b7 de bc 0a 79 c9 3e
       -0.015118133 0.5846834 -0.02718695 0.39350158
0002b0 bc 1f d9 3e 92 9a 33 3f 1f 2b c8 3d 7b 12 fe 3e
       0.42407024 0.7015773 0.0977385 0.49623474
0002c0 b4 eb 3a be 71 70 bc 3e 74 0e fb 3e 55 b5 52 be
       -0.18253976 0.36804536 0.49034464 -0.20576985
0002d0 f1 37 2e 3e ed 8f 19 be 3f 72 3f be ac 74 c6 bd
       0.17013527 -0.1499631 -0.18695925 -0.09690222
0002e0 21 c6 bb 3e 51 cb e4 3e 33 93 b3 3e ad 3c 37 3d
       0.36674598 0.44686368 0.35073242 0.0447356
0002f0 ba 37 63 be ab d2 9a be 8a 0c 98 bd a5 f8 be be
       -0.22189227 -0.30238852 -0.07424267 -0.37299076
000300 96 44 a9 3e ff c6 00 3f fd 47 e9 3e 18 21 2f 3f
       0.3306014 0.50303644 0.45562735 0.6840987
000310 9c 4b 8a be 18 e0 af be a7 3a b9 3e 4a 06 15 be
       -0.2701081 -0.34350657 0.3617756 -0.1455318

l_a.weight f4 [2, 200]
000000 e0 26 c7 bd 12 21 e1 3c db b8 7a 3d 4b dd c7 bc
       -0.09724212 0.02748159 0.06121145 -0.024397513
000010 36 ef 64 bd 31 25 98 3d ad 3a 3b bd a7 1a 9b bd
       -0.05589219 0.07428969 -0.045710254 -0.07573443
000020 a7 0f 86 bd 0c b7 0b be 0c e5 11 3d de dd 8f bd
       -0.06545954 -0.13644046 0.035618827 -0.0702474
000030 e8 6c b8 3c 2d dc 58 bd 99 1f 17 bd e9 04 27 3d
       0.022512868 -0.05294435 -0.03689537 0.040776167
000040 ce ba 1d 3d 35 99 a8 bd 73 e3 b2 bc 53 81 d2 bd
       0.03850823 -0.08232347 -0.021836972 -0.10278573
000050 55 2c 69 3d 63 9a 4b 3d 5d d6 ac 3d 44 9f 79 3d
       0.056927044 0.04970778 0.08439324 0.060942903
000060 ea 52 2f bc 11 14 9b bd 95 9e d4 3b 6d 7e 63 bd
       -0.010700921 -0.07572187 0.006488631 -0.05554049
000070 be 85 4a bd 4f 20 f8 bc 04 71 55 3b 67 12 4b be
       -0.049443953 -0.030288843 0.0032568583 -0.19831239
000080 f5 0d 37 be 0a 7e d6 bd 39 8b 24 bd 85 f1 f7 3c
       -0.17876418 -0.10473259 -0.040171836 0.030266533
000090 16 f9 b8 bc 48 14 10 3c e7 26 c2 bd 65 eb 9b 3d
       -0.02257971 0.008793898 -0.09480076 0.07613257
0000a0 ba ec db 3b 72 63 42 3e 9f eb 8f 3d cb 59 8b 3d
       0.0067115696 0.18983248 0.07027363 0.06804236
0000b0 d3 78 be bc 6c 3d 0d 3d d6 90 d8 3b 8d 3f 04 bd
       -0.023250973 0.034482405 0.0066090627 -0.03228717
0000c0 01 e3 4f bd 41 e3 61 bd 6b 0d c9 bd 18 d1 90 bd
       -0.050753597 -0.055148367 -0.098170124 -0.070711315
0000d0 3c e9 f6 3a 47 42 17 3d 71 8c 41 3d a2 c9 d4 3c
       0.001883782 0.03692844 0.047253076 0.025975052
0000e0 f3 31 9e bd 3e 1c ba bc fe be 24 bc d8 30 e3 3a
       -0.07724371 -0.022718545 -0.010055302 0.0017333282
0000f0 de e5 db 3c b2 6e 0c 3c 43 95 a9 bc ef 59 8c bd
       0.026843008 0.008571314 -0.020701056 -0.06853091
000100 bd c4 d3 bd 47 a6 b3 3d 34 aa 13 3d b0 1d 66 3c
       -0.10340259 0.08771949 0.03605099 0.014045164
000110 27 9a 11 bc 48 53 e6 bd 38 70 c0 3d 99 75 b0 3d
       -0.00888685 -0.112463534 0.09396404 0.0861618
000120 98 71 21 b9 77 d1 4a 3e f2 05 d7 3c 63 cc 87 bd
       -0.00015396473 0.19806467 0.026247952 -0.066307805
000130 86 80 bd 3c 6f f0 92 3d d9 b4 c1 bd dd c3 7f 3d
       0.023132574 0.07174765 -0.09458322 0.06244265
000140 bb bb 87 bd f1 0d f2 3c 1d 40 b8 bd 10 b1 cf 3d
       -0.066276036 0.029547663 -0.08996604 0.10141194
000150 d8 90 06 3d 32 99 c9 3d 09 36 1d 3c 26 fc d1 3d
       0.032852978 0.09843673 0.0095954025 0.102531716
000160 9f 19 f0 bd 82 41 33 bd 9f d0 47 bd c9 b1 b5 bd
       -0.11723637 -0.043763645 -0.04878294 -0.088718005
000170 a7 96 0c bd e3 3a cb 3c c2 18 bd bd 05 74 3e 3d
       -0.03432336 0.024808353 -0.09233238 0.046497364
000180 b3 59 5d bd fa fa 22 3c df 38 bb bd b1 f5 1c bc
       -0.054040622 0.009947533 -0.09141707 -0.009580062
000190 45 ea d9 bd d3 df 93 bc c5 99 8e 3d ff ff b0 3b
       -0.106403865 -0.018051064 0.06962923 0.005401611
0001a0 f1 f9 c4 bc 88 d6 8f 3c 95 5e 96 3d 0f ca c4 3d
       -0.024044963 0.017558351 0.07342259 0.09608852
0001b0 7a 2c 81 3d 5e b3 26 be 90 10 69 b9 06 22 5b bd
       0.06307311 -0.1627936 -0.00022226782 -0.053499244
0001c0 4c e5 8e bd a5 ac 30 3c e8 e7 9b bd c9 97 e3 bb
       -0.06977329 0.010783349 -0.07612592 -0.0069455844
0001d0 bd e9 b7 3d 93 e8 29 3d ad 8c 94 3d df fd b0 bc
       0.08980129 0.041481566 0.07253394 -0.02160543
0001e0 9f 09 a1 bd ad d9 92 bc ab 47 6a bd 67 bc df 3d
       -0.07863163 -0.017926062 -0.057197254 0.10924607
0001f0 03 aa 05 3d 33 28 b2 bd bf dd 9d bc 3b 9e 90 3d
       0.03263284 -0.08699074 -0.019270776 0.0706143
000200 40 2a e1 3d ca a6 de 3b 9b 28 ad 3d fe af 99 bb
       0.10994387 0.006794785 0.084550105 -0.0046901694
000210 ad ec 2b bd 87 db b6 3d 3f 5b 1b bd 24 a0 87 3d
       -0.04197376 0.0892859 -0.037928816 0.06622341
000220 78 26 01 3d 39 7c 21 bc b3 95 e1 3d 79 1d 1b 3e
       0.031530827 -0.009856277 0.11014881 0.15147962
000230 14 f0 8e bc ca c4 00 bd b8 02 a1 bc a6 21 89 3c
       -0.017448463 -0.031437673 -0.019654617 0.016739678
000240 49 46 32 3e d2 68 d9 3d 04 4e f0 bd 70 d3 86 bb
       0.17409624 0.10615696 -0.1173363 -0.004114561
000250 ef 35 92 bd fc 4c 62 bc a2 34 36 3d 67 6e 33 bb
       -0.07139193 -0.0138123 0.04448379 -0.0027379037
000260 fc 03 4f bc 24 3b c4 bc bb e7 ef 3b c9 50 0d 3d
       -0.012635227 -0.023953982 0.0073213256 0.03450087
000270 43 a4 74 3b b3 ad c5 bd fa c1 8b 3d b0 cf c5 3d
       0.0037329353 -0.09652271 0.068241075 0.09658754
000280 d0 f5 36 bc 72 2b cb bd d2 d3 04 3e 54 6e 94 bc
       -0.011167005 -0.09920396 0.12971428 -0.018119015
000290 8e f5 32 3d 81 96 61 3c 6d 25 5c 3c b6 bc b7 bd
       0.04369121 0.013768793 0.013436657 -0.08971541
0002a0 64 5e 8a bd c3 db d7 bd 0f 0c 8d bd 19 2d 2d 3d
       -0.06756285 -0.10539963 -0.068870656 0.042279337
0002b0 8a 28 09 3e d9 f2 95 3d 4f f5 c3 bd 06 54 90 bc
       0.1339437 0.0732171 -0.09568273 -0.01761819
0002c0 90 3d 71 3c 6d f6 36 3d d2 92 81 bd 06 ff c2 3d
       0.01472415 0.044668604 -0.06326832 0.09521298
0002d0 53 3f 34 3e 90 c4 17 bd b2 b3 8d bc 93 3e 0e 3e
       0.17602281 -0.03705269 -0.0172976 0.13891058
0002e0 ce c7 3f bd 3a f1 29 bd ba 2b 27 3e e4 7d 5a 3d
       -0.046821408 -0.041489817 0.16325274 0.053342715
0002f0 33 74 94 3b 1e 82 4d 3b b7 4b de bd b6 98 39 3d
       0.0045304536 0.0031358073 -0.10854285 0.045311652
000300 8f 29 95 bd 48 a1 aa bd 47 d7 aa bd 6f 65 41 bd
       -0.07283317 -0.08331543 -0.08341842 -0.047215875
000310 ab d1 b7 3d 8f cd 1f bc 4d 8a 97 bc e9 9c ce bc
       0.08975538 -0.009753599 -0.018498564 -0.025221305
000320 44 6b c7 3d 96 9b 90 bb 9a 59 f9 bd 8a 1e 80 3d
       0.09737256 -0.0044130785 -0.12175293 0.06255825
000330 be 15 d0 3c e1 12 a1 bd e2 e8 cb bc 77 90 a8 3c
       0.025400992 -0.07864929 -0.02489132 0.020576699
000340 2f e5 6a 3a 76 ca 88 3d c9 c0 71 bd 59 a2 85 3c
       0.00089605426 0.06679241 -0.059021745 0.016312765
000350 ed e7 da bd 76 f9 2c 3d 81 f4 87 bc 50 76 a9 3c
       -0.106887676 0.042230092 -0.01659608 0.020686299
000360 45 3c 13 bd e1 e0 9a 3d e1 f9 c2 3b d8 b0 85 3d
       -0.03594615 0.075624235 0.005950198 0.06527871
000370 b0 cb ab bc 6e ad 7d bd 11 cb b0 bd 7a 71 0d bd
       -0.02097115 -0.061932974 -0.08632482 -0.034532048
000380 b7 aa 92 bd 7c 1f 74 3c 79 07 07 bd 01 d3 e6 bc
       -0.071614675 0.014900085 -0.03296611 -0.028176786
000390 30 f0 64 bc 05 b2 49 3d d1 28 d5 3c 70 f5 11 3e
       -0.013973281 0.04924204 0.02602044 0.14253783
0003a0 3c 42 fb 3d 25 0c cb 3b 7d 25 3f bd af b3 8c 3d
       0.122684926 0.006196516 -0.04666661 0.068702094
0003b0 60 23 3f bb c9 3e 47 bd 35 08 1c 3d 3a 35 55 bc
       -0.0029165372 -0.04864386 0.038093764 -0.0130131785
0003c0 5f d2 ad 3c db 13 e5 bd 54 92 27 bd 2e 9e ae bd
       0.021218477 -0.11185428 -0.040911034 -0.08526264
0003d0 59 20 39 3b 38 b1 00 bd 6a 4c 2a 3c 4b 1b e5 3a
       0.002824804 -0.03141901 0.010394195 0.0017479447
0003e0 6f ff 33 bd 53 65 77 3c 5f db 94 3b 06 94 53 ba
       -0.043944772 0.015099841 0.0045427526 -0.00080710684
0003f0 3e 99 00 3d 74 65 30 bd f6 60 4f 3d 1a cd 84 bc
       0.031396143 -0.043065503 0.05062958 -0.016211081

l_a.bias f4 [2]
000000 80 7c 77 bd eb 08 35 bd
       -0.060421467 -0.044197958

l_q.weight f4 [1, 200]
000000 96 01 4d 3e 33 e5 2a 3d 39 0f 15 bd 87 30 2f 3e
       0.20020136 0.041722488 -0.03639147 0.17108355
000010 51 bc 6b 3e 16 bb 6c 3e 4b ce 10 be 12 7e c1 bd
       0.23021056 0.23118243 -0.14141195 -0.09447874
000020 22 c4 f4 bd 01 97 ef 3d 17 49 7d bd ee d0 11 3e
       -0.11951472 0.116987236 -0.061837282 0.14239857
000030 ed 04 21 3e 9d 72 79 be f2 4e 03 bd e3 c4 62 bc
       0.15724535 -0.24360128 -0.03205771 -0.013840887
000040 64 ba 7c 3d f5 1c 70 bd 4b 0d 5d 3e 26 8c 3a 3e
       0.061701193 -0.058621366 0.21587102 0.18217525
000050 35 24 b3 3d 79 c3 12 3e d5 86 2f 3e 34 0b 03 3e
       0.0874714 0.1433238 0.17141278 0.12797242
000060 c2 54 5e 3e 82 94 10 be 04 e0 66 3e fb e7 a8 bd
       0.2171202 -0.14119151 0.22546393 -0.08247372
000070 41 82 ab bd ab 5d 03 bd f0 d6 a3 3d e2 02 e3 bd
       -0.08374453 -0.03207175 0.079999804 -0.11084534
000080 2a 15 7b 3e 31 9f 39 3e bf 50 26 3e da d2 24 3e
       0.24519792 0.18127133 0.1624174 0.16096058
000090 fc fe 1e 3e a0 b9 15 3e b4 d4 1f 3e 9b 1b 6b bd
       0.15526956 0.14621592 0.15608484 -0.057399374
0000a0 20 08 73 3e ec 4d f4 3d 69 59 85 3c 19 06 db bd
       0.23733568 0.11928925 0.016277986 -0.106945224
0000b0 ef 95 ee 3d f6 1b 3f 3d a0 28 9c 3d 0a 56 d5 3c
       0.11649691 0.046657525 0.07624936 0.026042003
0000c0 26 0e ca bd 7d 02 13 3e 2a f3 36 3e 35 f5 51 3e
       -0.0986598 0.14356418 0.17866197 0.20503695
0000d0 24 38 69 bd d5 9c 1c be 4a 26 31 3e 3d 50 8b bc
       -0.056938305 -0.15294202 0.17299762 -0.017006034
0000e0 22 73 27 3e c4 35 05 3e 26 ad 1b be 53 6a 48 3e
       0.16352513 0.13008791 -0.1520277 0.1957181
0000f0 f2 f4 0d 3e 67 71 05 bd 56 e6 24 3e 14 9c 64 3d
       0.1386297 -0.032578852 0.16103491 0.05581291
000100 e6 0e 3d 3e 8d 65 b6 3b 96 e0 28 3e 6a eb 54 bc
       0.18462715 0.005566305 0.16491923 -0.01299558
000110 22 5e eb bd ed 89 e2 3d 1d 2f c9 bd 27 d2 1b 3e
       -0.11492564 0.110614635 -0.09823439 0.15216886
000120 44 ed 7f 3e 0d ef 42 be 1b e2 b0 bd b5 c9 47 3e
       0.24992853 -0.19036503 -0.08636876 0.19510539
000130 2d 24 70 bd 28 1b 72 3e ab 57 81 bb 67 25 20 3e
       -0.05862825 0.23643172 -0.0039472184 0.15639268
000140 8f b3 3f 3b e6 4f 10 bd f3 fc 2e bd 25 67 30 3e
       0.0029251312 -0.035232447 -0.0427217 0.17226847
000150 07 c6 64 3d cb 2e 25 3e e8 7f 92 bd 45 ea 2f 3e
       0.055852916 0.16131131 -0.071533024 0.1717921
000160 e1 7d 50 3e fe d7 50 3d 70 b9 55 3c 3c 47 03 3e
       0.20360519 0.050987236 0.0130447 0.12820143
000170 72 a3 c7 3d 9d b9 f3 bc 2e 7c 75 3d 22 01 7f 3e
       0.097479716 -0.029751593 0.05993288 0.24902776
000180 c9 8c 16 3e 6c 77 63 3e 10 d3 40 3e d8 21 75 bd
       0.14702143 0.22213525 0.18830514 -0.05984673
000190 7d 6b 12 3e 1c 77 20 3e 2b 2e 9f 3d 52 ac 5b 3e
       0.14298816 0.15670437 0.07772478 0.21452454
0001a0 0e 0e de 3d d9 fd 75 bd d4 40 82 3d ee 5a 4e 3e
       0.108425245 -0.06005654 0.06360021 0.20151874
0001b0 8d 01 4b bd 11 df 98 3d ae 12 0c 3e 5c 8b 53 3e
       -0.049562026 0.074644215 0.13679 0.2065863
0001c0 75 a0 29 3e 95 14 76 3d 12 8d 07 3e ab 71 95 bc
       0.16565116 0.060078222 0.13237408 -0.018242678
0001d0 c4 fa 6f 3d b7 ff 36 3e 30 54 79 3e ea 36 90 bd
       0.058588758 0.17870985 0.24348521 -0.07041724
0001e0 c2 6e ed bd 68 50 c3 bd 9f fe 12 3e 97 79 1c 3e
       -0.11593391 -0.09536821 0.14354943 0.15280758
0001f0 16 12 ed bd 39 82 e2 bd 79 7f 9e bd 01 78 01 be
       -0.11575715 -0.11059994 -0.07739157 -0.12643434
000200 4c 3a 4e 3d 89 ab 32 3e 1e a0 68 3e 6e a5 5f 3c
       0.050348565 0.17448248 0.2271733 0.013650281
000210 4c a3 e0 bc 9f 3a a2 bd d0 ea d3 3d d8 cb 71 bc
       -0.027421616 -0.07921337 0.10347521 -0.014758073
000220 2a 01 39 be b6 d5 a9 bd fb ab 0d be c9 06 4d 3e
       -0.1806685 -0.08292715 -0.13835137 0.2002212
000230 f1 12 5a 3e 6b b7 2a 3e d7 70 3c 3e 42 93 f3 3d
       0.21296288 0.16671531 0.1840242 0.118933216
000240 4a 42 30 3e f8 2d 42 3e 1b 62 19 be 05 ff d2 3b
       0.17212787 0.18962848 -0.1497883 0.006439092
000250 54 58 b0 3d eb c2 ee 3c 0d 83 d7 3c 43 1c 0f 3e
       0.08610597 0.029145679 0.026307607 0.13975625
000260 21 a4 50 3e cb 2d 29 3e ed 88 43 3c aa 54 5e 3e
       0.2037511 0.16521375 0.011934501 0.21711984
000270 c7 be ae 3c 77 75 53 3e ca 75 81 3e cd ed 3f 3e
       0.021331204 0.20650278 0.25285178 0.18743058
000280 05 a4 5f bd 34 3d 98 3c 57 39 66 3e 9c 12 22 be
       -0.05459978 0.018583871 0.22482811 -0.15827411
000290 13 29 88 3e 23 bc 53 be 85 4d d7 3d 39 29 d1 3d
       0.26593837 -0.20677237 0.105128326 0.10212941
0002a0 50 7a 24 3d cf 55 2e 3e 7e ea bc bc 19 cd 52 3e
       0.04015571 0.17024921 -0.023061033 0.20586051
0002b0 81 d7 22 3e 36 bc 5a 3e 9c bc db 3d d8 4c 38 3e
       0.1590252 0.2136086 0.10729334 0.17998064
0002c0 15 c0 e6 3c 73 fb 67 3e b8 e7 c7 3d 26 d2 ff bd
       0.028167764 0.22654514 0.09760994 -0.124912545
0002d0 f2 24 d5 3c 26 49 1c bd a5 06 e9 3c c4 6e c2 bd
       0.026018593 -0.038155697 0.028445551 -0.09493783
0002e0 64 fd 2c 3e 33 f4 fd 3d 69 e2 cf 3d d4 fb 1c bc
       0.16893536 0.12400093 0.10150606 -0.009581525
0002f0 80 d5 13 3d ca d0 56 bd 7d d1 36 be e9 2e dc 3c
       0.03609228 -0.05244521 -0.17853351 0.026877837
000300 66 9d 4e 3e ac 85 1e 3e 8b 82 e5 3d e4 c3 16 3e
       0.2017723 0.1548068 0.1120654 0.14723164
000310 ba 8a af bd 49 7e 10 3d b1 41 af 3d 70 b6 a8 bd
       -0.08571382 0.035276685 0.085574515 -0.08237922
