A3C/a3c_ckpt.pth (torch_old, 7464 bytes, 5 tensors)

l1.weight f4 [200, 4]
0	0x3e80ba6e	0.25142235
1	0x3ec3c37c	0.3823508
2	0xbde0ac7e	-0.109704
3	0x3e98bfdb	0.29833874
4	0x3daa9b87	0.08330446
5	0x3db89ca1	0.090142496
6	0x3efde453	0.4958826
7	0xbe9be652	-0.30449158
8	0xbe8c3295	-0.2738234
9	0xbd0c7151	-0.034287754
10	0x3d8ee17b	0.06976601
11	0xbee22b5a	-0.441737
12	0x3e8fbf29	0.2807553
13	0x3ea12bfc	0.3147887
14	0x3ecdf7f5	0.4022824
15	0x3ee5c1fb	0.44874558
16	0xbdb82605	-0.08991627
17	0x3eb5272d	0.3538145
18	0x3abd351f	0.0014435387
19	0x3e815652	0.2526117
20	0x3c909ab4	0.017651893
21	0xbe645a88	-0.2230016
22	0xbf078a1f	-0.5294513
23	0xbd7a5226	-0.0611135
24	0x3ec16a45	0.3777639
25	0x3eb8f198	0.3612182
26	0x3dd6cfad	0.1048883
27	0x3e5a73e7	0.21333276
28	0x3d1bd8da	0.038048603
29	0xbe587302	-0.21137622
30	0x3e5dd704	0.21664053
31	0x3ef61f3a	0.480707
32	0x3ee66c1c	0.45004356
33	0x3f01b7cc	0.50671077
34	0x3ee6be00	0.45066833
35	0x3ee844ea	0.45365077
36	0x3d1a79f7	0.03771397
37	0x3eb3aadf	0.35091302
38	0x3c83ba03	0.016079908
39	0x3ee21e51	0.44163755
40	0xbee37ae2	-0.4442969
41	0x3d86a350	0.06574118
42	0xbdba63a7	-0.091010384
43	0xbed3ba63	-0.4135314
44	0x3eb686be	0.35649675
45	0x3e679e5a	0.22619
46	0xbe83c249	-0.25734165
47	0x3dc7f9af	0.0976442
48	0x3e5b0d81	0.2139187
49	0xbd9dfdf3	-0.077144526
50	0xbec79ebb	-0.3898829
51	0xbed8721f	-0.42274567
52	0xbe156753	-0.14590196
53	0x3e8211c3	0.25404176
54	0x3e589433	0.21150284
55	0x3ef7e254	0.48414862
56	0x3ebc8398	0.36819148
57	0xbcd01117	-0.025398774
58	0xbe73296a	-0.23746267
59	0x3e82a09f	0.2551317
60	0x3dbd4ff2	0.09243764
61	0xbeb8d72d	-0.36101666
62	0xbeb9d1c9	-0.36292866
63	0xbeb5f02b	-0.35534796
64	0xbdab8e29	-0.08376724
65	0xbe22b4a1	-0.15889217
66	0xbe90e706	-0.28301257
67	0x3e2e5f38	0.1702851
68	0xbe9fb58d	-0.311932
69	0xbe9415bc	-0.28922832
70	0xbea5e404	-0.32400525
71	0x3ef057f7	0.46942112
72	0xbe849ebb	-0.25902352
73	0x3e23894b	0.15970342
74	0x3e68782e	0.22702095
75	0x3ee30166	0.44337004
76	0x3bce8fef	0.0063037793
77	0xbe0b7570	-0.13619018
78	0x3ed41848	0.41424775
79	0x3e8264b7	0.25467464
80	0xbde8432b	-0.11340936
81	0x3eac2552	0.33622223
82	0xbe903678	-0.28166556
83	0x3d3df0ab	0.046372097
84	0x3e6428a3	0.22281127
85	0xbe79c1d2	-0.24390343
86	0x3e735734	0.23763734
87	0xbe2df2b3	-0.16987114
88	0xbea140ee	-0.3149485
89	0x3e2ea49b	0.1705498
90	0xbed7b64f	-0.42131278
91	0xbe584daf	-0.21123384
92	0x3dfda5e1	0.123851545
93	0x3eda23a7	0.42605326
94	0x3eb5f74a	0.3554023
95	0xbeef5b26	-0.46749228
96	0x3dceecf8	0.10103792
97	0x3d7a9634	0.0611784
98	0xbe70f0d5	-0.2352937
99	0xbd3f1f61	-0.046660785
100	0xbefcbcce	-0.49362797
101	0xbf0c7335	-0.5486329
102	0x3f189256	0.5959829
103	0x3eaa4f04	0.3326341
104	0xbeafc35d	-0.34328738
105	0xbdc61bfd	-0.09673307
106	0x3d175f60	0.03695619
107	0x3d681299	0.05665836
108	0xbf0e9ac8	-0.5570493
109	0xbd234ca2	-0.039868005
110	0xbdd04627	-0.101696305
111	0x3eb81f4d	0.3596138
112	0x3ee4d96d	0.44697133
113	0xbe164556	-0.14674887
114	0xbebef327	-0.37294886
115	0x3d6b1818	0.057396024
116	0xbebf816d	-0.37403432
117	0x3e06c1fb	0.13159935
118	0xbe9cdcb8	-0.30637145
119	0xbaee061b	-0.0018159779
120	0x3eae2db1	0.34019235
121	0xbd0a9cdb	-0.033840995
122	0x3ec8395c	0.39106262
123	0x3ed7fe9f	0.42186448
124	0xbf0c9483	-0.5491411
125	0x3e8da3ed	0.27664128
126	0x3ed0a344	0.40749562
127	0x3eb95797	0.36199638
128	0xbee33c0c	-0.4438175
129	0x3efd9d86	0.49534243
130	0xbe5c7033	-0.21527176
131	0x3e3dfdb5	0.18553813
132	0x3e3d7d2e	0.18504784
133	0x3ed11614	0.40837157
134	0xbe7abbd1	-0.24485709
135	0x3e1a8227	0.15088712
136	0xba38e817	-0.0007053627
137	0xbeb3f230	-0.35145712
138	0xbf09f4ae	-0.53888977
139	0xbd8efd5d	-0.06981919
140	0x3d50de76	0.050993405
141	0x3e895585	0.2682306
142	0x3d9921f7	0.074771814
143	0xbda45780	-0.08024502
144	0x3cf2c88c	0.029636644
145	0xbe4d9cf6	-0.20079407
146	0xbeb95b9d	-0.36202708
147	0x3e44e0c7	0.19226371
148	0xbe6152f2	-0.22004297
149	0xbe4a0c3c	-0.1973123
150	0xbe9ba4e5	-0.30399242
151	0x3de80422	0.11328913
152	0x3e65cfda	0.2244257
153	0xbe73434c	-0.2375614
154	0x3e331964	0.17490155
155	0x3efee63c	0.4978503
156	0xbefa3c2e	-0.48874038
157	0xbec2e31d	-0.380639
158	0xbec0fac7	-0.37691328
159	0xbece785f	-0.4032621
160	0xbe9e79de	-0.30952352
161	0x3ee1dfe4	0.44116127
162	0x3cb8e8f4	0.022572018
163	0xbd5fb63c	-0.05461715
164	0x3d9cf6b5	0.07664243
165	0xbe0f9a0f	-0.14023612
166	0x3f03cc8f	0.51484007
167	0xbeff0e5b	-0.4981564
168	0xbeabc317	-0.3354728
169	0x3d9d8e1d	0.076931216
170	0xbeb660f5	-0.35620847
171	0xbe9a2016	-0.30102605
172	0x3f1c36ec	0.61021304
173	0x3ed7d54e	0.42154926
174	0xbebacadc	-0.36482894
175	0xbd639643	-0.055563223
176	0x3e360c5e	0.17778155
177	0xbeb33e0c	-0.35008276
178	0xbf0cb575	-0.5496438
179	0x3e92eb1d	0.28695002
180	0x3ef13051	0.47107175
181	0xbee5b7ed	-0.44866887
182	0xbe3f3142	-0.18671134
183	0x3ea297f5	0.3175656
184	0x3cb71d55	0.022352854
185	0x3e1a2e5f	0.15056752
186	0x3eb7326e	0.35780662
187	0x3e849318	0.25893474
188	0x3ed43b8e	0.41451687
189	0xbe625168	-0.22101367
190	0xbef68d64	-0.48154747
191	0x3ef3e559	0.47635916
192	0xbdef3749	-0.11680467
193	0xbf0101ee	-0.5039357
194	0xbdaa8b14	-0.08327308
195	0x3ee4908b	0.44641528
196	0xbe147126	-0.14496288
197	0xbe4d3c9a	-0.20042649
198	0x3d98aae9	0.074544735
199	0x3e88901c	0.26672447
200	0xbea1ac5e	-0.31576818
201	0x3ed071ce	0.40711826
202	0xbd60efd7	-0.05491623
203	0x3ead158e	0.33805507
204	0xbe58752f	-0.21138452
205	0x3e91160c	0.28337133
206	0x3ecf2a06	0.4046175
207	0xbdf32d04	-0.118738204
208	0xbda5616a	-0.08075221
209	0x3f0823e9	0.53179795
210	0x3d53d717	0.051718798
211	0x3ef47c5b	0.47751126
212	0xbf1310e2	-0.57447636
213	0xbef7e0b7	-0.4841363
214	0xbe92aa3e	-0.2864551
215	0xbe7f3588	-0.24922764
216	0x3ed58ff5	0.41711393
217	0xbe4d6e66	-0.20061645
218	0xbeae8314	-0.3408438
219	0xbd00fe8e	-0.031492762
220	0x3e470315	0.1943477
221	0x3e0b55e7	0.13606988
222	0xbe331706	-0.17489251
223	0xbdb7d851	-0.08976806
224	0xbec25dd7	-0.3796222
225	0x3e436030	0.19079661
226	0xbe6c5dd4	-0.23082668
227	0x3e4074c3	0.18794541
228	0x3eb47f08	0.35253167
229	0xbdc991ac	-0.09842238
230	0xbeb8e001	-0.361084
231	0x3ea8a235	0.32936254
232	0x3f205ffd	0.62646466
233	0x3e7c60fa	0.24646369
234	0x3e20e422	0.15712026
235	0x3ec50d7d	0.38486853
236	0x3ecffa5a	0.4062069
237	0xbe3cb9c0	-0.18430233
238	0xbd85c285	-0.06531242
239	0xbe870d7b	-0.26377472
240	0xbef66554	-0.48124182
241	0x3f186669	0.59531265
242	0x3d39384e	0.045219712
243	0xbee5bb2f	-0.44869372
244	0x3e11c3b2	0.14234808
245	0x3e7bd878	0.24594295
246	0xbef98d95	-0.4874083
247	0x3e1fd537	0.15608679
248	0xbea85e3a	-0.3288439
249	0x3e87de3d	0.26536742
250	0xbeae38ff	-0.3402786
251	0x3e683268	0.22675478
252	0x3e2d9a45	0.1695338
253	0xbe63a48f	-0.22230743
254	0x3e7f21f5	0.24915297
255	0x3d4492aa	0.047991432

l1.bias f4 [200]
0	0x3ef42a31	0.4768844
1	0xbeef2b06	-0.46712512
2	0xbe1ac889	-0.1511556
3	0x3ebf1d84	0.37327206
4	0x3f18abc9	0.59637123
5	0x3f1688a9	0.58802277
6	0xbea94d57	-0.33066818
7	0xbe9727d7	-0.29522583
8	0xbed1ed77	-0.41001484
9	0x3ee60997	0.4492919
10	0xbef6b20d	-0.48182717
11	0x3f2c1d49	0.67232186
12	0x3f339311	0.7014628
13	0xbdb06579	-0.086131044
14	0xbd008244	-0.03137423
15	0xbe72ea06	-0.23722085
16	0xbf03bfbb	-0.5146443
17	0xbe1eb435	-0.15498431
18	0x3f0b5e53	0.544408
19	0x3eb8b16b	0.3607286
20	0x3eac45f3	0.33647117
21	0x3f327ede	0.69724834
22	0x3f214d76	0.6300882
23	0x3ef28c7a	0.473728
24	0x3eaa81f6	0.33302277
25	0xbec2cd3a	-0.380472
26	0x3f301e5a	0.6879631
27	0xbe8317b1	-0.25604013
28	0xbd9149f6	-0.07094185
29	0xbe991613	-0.29899654
30	0x3f12041f	0.5703754
31	0xbd42ce8b	-0.047560256
32	0x3e856682	0.2605477
33	0x3ebe3e5f	0.3715696
34	0x3f2a0f25	0.6642936
35	0x3f1f7a0b	0.622956
36	0x3eb88459	0.36038473
37	0x3f351a17	0.70742935
38	0x3f24d4ee	0.64387405
39	0xbed0a337	-0.40749523
40	0x3f15c9ef	0.5851125
41	0x3e61a389	0.2203504
42	0xbedba8d9	-0.42902258
43	0xbeac746a	-0.33682567
44	0x3f327dde	0.6972331
45	0x3e96bc81	0.29440692
46	0xbf017689	-0.50571495
47	0xbd1987af	-0.037482914
48	0xbeb01cc7	-0.34396955
49	0x3f347c54	0.7050221
50	0x3f34bade	0.70597637
51	0x3f2d58e4	0.6771376
52	0xbeb3bbb4	-0.35104144
53	0xbd8fffb9	-0.07031197
54	0x3f31d3b7	0.69463676
55	0xbe36a92f	-0.17837976
56	0x3f0eb2d1	0.557416
57	0x3f003cb1	0.5009261
58	0xbe33ef02	-0.17571643
59	0x3f25483b	0.6456334
60	0xbcab233c	-0.020890824
61	0xbe5ca53c	-0.21547407
62	0x3f1a50aa	0.60279334
63	0x3e4d7606	0.20064554
64	0x3f122f50	0.57103443
65	0xbe7d2809	-0.24722303
66	0x3ef675cb	0.48136744
67	0xbedfa79f	-0.43682572
68	0xbed610d1	-0.41809705
69	0x3e7ca4eb	0.24672286
70	0xbea06abc	-0.31331432
71	0x3ec062ca	0.3757537
72	0x3ee06ba5	0.43832126
73	0xbd381fd5	-0.044952232
74	0xbe949fc8	-0.29028153
75	0x3f00d20a	0.50320494
76	0xbee48898	-0.44635463
77	0x3f0f00d2	0.55860627
78	0xbe7955b5	-0.24349101
79	0x3f248e42	0.6427957
80	0xbe4d775a	-0.2006506
81	0xbe697220	-0.22797441
82	0xbdcc8ca6	-0.09987764
83	0x3ecfd9f7	0.4059598
84	0xbec8658a	-0.39139968
85	0x3f217c87	0.6308064
86	0xbd40b6ee	-0.047049455
87	0x3e97d108	0.29651666
88	0x3f2444d4	0.64167523
89	0xbeb0139c	-0.3438996
90	0xbe5f4792	-0.21804646
91	0x3e8b0e08	0.27159142
92	0x3ee23b5b	0.4418591
93	0xbdaff42a	-0.085914925
94	0x3ee7969b	0.4523209
95	0x3f266920	0.6500416
96	0x3f1310b7	0.5744738
97	0x3f1ceba4	0.6129706
98	0x3f1a0f47	0.6017956
99	0xbeea7191	-0.4578977
100	0x3ee635ec	0.44963014
101	0x3f0d88f8	0.5528712
102	0x3e4dd603	0.2010117
103	0x3f341815	0.70349246
104	0x3f099be9	0.53753525
105	0xbe7ecad2	-0.24882057
106	0xbee18c62	-0.44052416
107	0x3ecf1a89	0.40449932
108	0xbdb916ab	-0.09037527
109	0x3e5b3be2	0.21409562
110	0x3e739557	0.23787437
111	0x3f2b1c77	0.6684031
112	0x3ef05b3b	0.46944603
113	0xbeb7bf57	-0.35888168
114	0x3f063876	0.524299
115	0xbeea85b2	-0.45805126
116	0x3df0ec03	0.11763766
117	0x3f1f5663	0.6224119
118	0x3f0bed03	0.54658526
119	0xbeeea0df	-0.4660711
120	0xbd7d6e61	-0.061872844
121	0xbea320fb	-0.318611
122	0x3f10dd1e	0.565874
123	0x3e73f7e2	0.23825029
124	0xbe546681	-0.20742227
125	0xbd5c7427	-0.05382171
126	0xbe2df3de	-0.16987559
127	0xbe3bc9d0	-0.18338704
128	0x3e654149	0.22388186
129	0x3f25ce6d	0.64768106
130	0x3f34e8c0	0.7066765
131	0x3dbf1f92	0.093321934
132	0xbd2eb023	-0.042648446
133	0xbeb287a3	-0.34869108
134	0x3eadd20b	0.33949313
135	0xbd934478	-0.07190794
136	0xbd6456c9	-0.055746827
137	0xbeea7bdb	-0.4579762
138	0xbedceba2	-0.43148524
139	0x3eb6aa6d	0.356769
140	0x3f3b9ef4	0.7328942
141	0x3ed048f8	0.4068067
142	0x3f0252b4	0.50907445
143	0x3f239e7f	0.6391372
144	0x3f094a90	0.536294
145	0x3e535eb9	0.20641603
146	0xbdd15435	-0.10221139
147	0xbe52e41f	-0.20594834
148	0x3ed52a55	0.4163386
149	0xbeeafd0b	-0.4589618
150	0x3d118608	0.035528213
151	0x3f108082	0.5644609
152	0x3e908844	0.28228962
153	0x3ec522fc	0.38503253
154	0xbe2b08f3	-0.16702633
155	0x3f1a5ed8	0.6030097
156	0xbf042dcc	-0.5163238
157	0x3eb98271	0.3623233
158	0x3f29f882	0.6639482
159	0x3f115001	0.567627
160	0xbe90408b	-0.28174242
161	0x3d77cc6d	0.06049769
162	0x3ec9a700	0.39385223
163	0xbe233bd6	-0.15940794
164	0x3eae2185	0.34009948
165	0xbd977091	-0.07394517
166	0x3eaa7ea6	0.3329975
167	0x3eced641	0.40397838
168	0xbc849fde	-0.016189512
169	0x3f15e629	0.5855432
170	0xbd155aea	-0.036463656
171	0x3ec9e73c	0.3943423
172	0x3ed9803b	0.42480645
173	0x3f33d719	0.7025009
174	0x3dcbea37	0.09956782
175	0x3efe79db	0.49702343
176	0xbe394906	-0.18094262
177	0x3ebd0ac1	0.36922267
178	0x3efbc2c3	0.4917203
179	0xbe5650de	-0.20929286
180	0x3e2e0d34	0.16997224
181	0xbe196d9f	-0.14983223
182	0xbe3e98a7	-0.1861292
183	0xbddad0e5	-0.10684375
184	0x3ebc9a5e	0.36836523
185	0x3ee54b95	0.44784227
186	0x3eb4af81	0.3529015
187	0x3d326ad2	0.043558903
188	0xbe6171ce	-0.2201607
189	0xbe9d6fd9	-0.30749395
190	0xbdac2eec	-0.08407387
191	0xbebe8cf9	-0.3721693
192	0x3ea9f12f	0.3319182
193	0x3f0127e2	0.5045148
194	0x3ee9a659	0.45634726
195	0x3f2f4d0e	0.6847695
196	0xbe8fad74	-0.28062022
197	0xbeaf51ab	-0.34241995
198	0x3eb98dbc	0.36240947
199	0xbe1657b0	-0.14681888

l_a.weight f4 [2, 200]
0	0xbdbe1d54	-0.09282938
1	0x3cdb4d41	0.026770236
2	0x3d654404	0.055973068
3	0xbc8c7b5f	-0.017148672
4	0xbd527f3d	-0.051390875
5	0x3d95aa03	0.07307818
6	0xbd2b08ca	-0.04175643
7	0xbd957707	-0.07298093
8	0xbd71120c	-0.0588551
9	0xbe05061d	-0.12990613
10	0x3d07b99d	0.033136
11	0xbd8cbbc6	-0.068717524
12	0x3c976b1a	0.018483687
13	0xbd3440da	-0.04400716
14	0xbd0d916d	-0.034562517
15	0x3d195534	0.03743477
16	0x3d1d1252	0.03834755
17	0xbda43c1d	-0.08019278
18	0xbc8477fa	-0.01617049
19	0xbdc7af19	-0.09750194
20	0x3d6e3742	0.058158167
21	0x3d4f73e2	0.050647624
22	0x3da902c0	0.08252478
23	0x3d72f6e3	0.05931748
24	0xbc43ea81	-0.011957766
25	0xbd953ba4	-0.07286766
26	0x3c1148aa	0.008867422
27	0xbd591c08	-0.05300525
28	0xbd4d198b	-0.050073188
29	0xbd04bce5	-0.032406706
30	0x3c08d1fd	0.008350846
31	0xbe3ad6ca	-0.18245998
32	0xbe2eab1f	-0.17057465
33	0xbdd0a289	-0.10187251
34	0xbd28203a	-0.04104636
35	0x3d02b0e9	0.031906996
36	0xbcab899e	-0.020939644
37	0x3c2982ca	0.010346124
38	0xbdb98116	-0.09057824
39	0x3d93abdf	0.07210516
40	0x3c147957	0.009062133
41	0x3e3b6352	0.18299606
42	0x3d8ea053	0.06964173
43	0x3d8cbfcc	0.0687252
44	0xbcb2791e	-0.021786269
45	0x3d17083c	0.036873087
46	0x3bd58482	0.0065160403
47	0xbcf2d13f	-0.029640792
48	0xbd48d414	-0.04903038
49	0xbd5492cc	-0.05189781
50	0xbdbf9b6a	-0.09355815
51	0xbd8acc47	-0.06777244
52	0x3c1b4bad	0.009478492
53	0x3d12e936	0.03586694
54	0x3d4124d8	0.047154278
55	0x3cc68374	0.024232604
56	0xbd97b4ba	-0.07407518
57	0xbca42f8e	-0.020042207
58	0xbb73367f	-0.003711134
59	0x398abf88	0.00026464113
60	0x3ccbf918	0.02489905
61	0x3c032ed4	0.00800677
62	0xbc90d359	-0.017678903
63	0xbd8398fd	-0.064256646
64	0xbdc9dbac	-0.09856352
65	0x3db2e605	0.08735279
66	0x3d08dda8	0.033414513
67	0x3c6b4b22	0.014361175
68	0xbc63faac	-0.013914745
69	0xbdd4beba	-0.10387941
70	0x3db27d70	0.087153316
71	0x3da7de88	0.08196741
72	0xbb4510ad	-0.0030069754
73	0x3e42a43b	0.19007961
74	0x3cf06b15	0.029347936
75	0xbd86d89a	-0.06584282
76	0x3cb3a035	0.021926979
77	0x3d94ad36	0.072596
78	0xbdbde335	-0.09271852
79	0x3d80ceac	0.062894195
80	0xbd843d85	-0.064570464
81	0x3cf9cf5d	0.030494386
82	0xbda500f9	-0.08056826
83	0x3dc7bb74	0.09752551
84	0x3d0936bd	0.033499468
85	0x3dc51da1	0.09624792
86	0x3c376372	0.011193143
87	0x3dcbfa3c	0.09959838
88	0xbde7e9c8	-0.11323887
89	0xbd22958a	-0.039693393
90	0xbd2201f6	-0.03955265
91	0xbda6b57f	-0.081400864
92	0xbcff9655	-0.031199614
93	0x3ccd8053	0.025085604
94	0xbdb7142f	-0.089393966
95	0x3d38b3de	0.04509341
96	0xbd603b8d	-0.054744292
97	0x3bde1b75	0.0067781755
98	0xbdb29878	-0.08720487
99	0xbbb45270	-0.0055029914
100	0xbdd287dd	-0.1027982
101	0xbc81c2e5	-0.015840003
102	0x3d8699ce	0.06572305
103	0x3c002ca3	0.007823142
104	0xbcab1475	-0.020883778
105	0x3c6fd134	0.01463728
106	0x3d9666b8	0.07343811
107	0x3dc1386d	0.094345905
108	0x3d6b59bd	0.057458628
109	0xbe1cc979	-0.1531123
110	0xb957845d	-0.00020553307
111	0xbd4ec890	-0.05048424
112	0xbd876cd8	-0.06612557
113	0x3c550d94	0.013003726
114	0xbd918163	-0.07104757
115	0xbc151063	-0.009098145
116	0x3db2a581	0.087229736
117	0x3d350f4f	0.044204053
118	0x3d8b65af	0.06806504
119	0xbca3332f	-0.019921867
120	0xbd956b7a	-0.0729589
121	0xbca79fb7	-0.0204619
122	0xbd647abd	-0.055781115
123	0x3dd3df93	0.10345378
124	0x3d1974e1	0.03746498
125	0xbd9fa5ff	-0.07795333
126	0xbc918bdd	-0.017766887
127	0x3d878c0b	0.06618508
128	0x3dd81db9	0.10552544
129	0x3c34ad7c	0.01102769
130	0x3da94f54	0.08267084
131	0xba0e2b3a	-0.00054233114
132	0xbd0b7b29	-0.034053
133	0x3db83848	0.0899511
134	0xbd1140ac	-0.035462067
135	0x3d730f36	0.05934068
136	0x3d1f9c53	0.03896744
137	0xbc267613	-0.010159987
138	0x3ddde22b	0.10834154
139	0x3e1630fe	0.14667127
140	0xbc8a8564	-0.016909309
141	0xbccff236	-0.02538405
142	0xbc8c0660	-0.017092884
143	0x3c9a779a	0.018855859
144	0x3e2b50ea	0.16730085
145	0x3dd507c0	0.10401869
146	0xbde14e64	-0.1100128
147	0xbb312e12	-0.0027035517
148	0xbd903567	-0.07041436
149	0xbc63740b	-0.013882647
150	0x3d24b6bd	0.040213335
151	0x3b739987	0.0037170367
152	0xbc3bcafb	-0.0114619685
153	0xbcbddc21	-0.023176255
154	0x3c1b4e5c	0.009479132
155	0x3d151a14	0.036401823
156	0x3b6f6b72	0.0036532548
157	0xbdbadf8e	-0.09124671
158	0x3d8a1f45	0.067442454
159	0x3dc19fb3	0.09454288
160	0xbc4c8517	-0.012482903
161	0xbdbf377c	-0.09336755
162	0x3dffee9a	0.124966815
163	0xbc599667	-0.013280488
164	0x3d374a69	0.044748697
165	0x3c96c82e	0.018406
166	0x3c5b58bd	0.013387856
167	0xbdb10459	-0.086434074
168	0xbd82ee4f	-0.0639311
169	0xbdcdce8b	-0.100491606
170	0xbd756e24	-0.05991949
171	0x3d220cb6	0.039562903
172	0x3e04ad21	0.12956668
173	0x3d8fa05a	0.070130065
174	0xbdb1121b	-0.086460315
175	0xbc6d79c6	-0.014494365
176	0x3ca3fd67	0.020018293
177	0x3d3a9d1d	0.04555999
178	0xbd69566b	-0.05696718
179	0x3dbe1ef2	0.09283246
180	0x3e2d3ee2	0.16918519
181	0xbd24b8cd	-0.040215302
182	0xbc4a9f73	-0.012367117
183	0x3e049fc3	0.1295157
184	0xbd40140b	-0.046894114
185	0xbd1d0a3d	-0.038339842
186	0x3e213c35	0.15745623
187	0x3d43b92a	0.047784008
188	0x3be07e20	0.006850973
189	0x3bce0721	0.006287471
190	0xbdcd3956	-0.100207016
191	0x3d3327a9	0.043738995
192	0xbd8ef038	-0.06979412
193	0xbda314bd	-0.0796294
194	0xbda138d7	-0.078721695
195	0xbd428058	-0.04748568
196	0x3da79a61	0.08183742
197	0xbc01a756	-0.007913431
198	0xbc879474	-0.01655028
199	0xbcd6ecc2	-0.026235942
200	0x3dbe6182	0.09295942
201	0xbb72988d	-0.0037017197
202	0xbdee9f10	-0.116514325
203	0x3d628b63	0.05530871
204	0x3cab34de	0.020899232
205	0xbd9e9796	-0.077437565
206	0xbcec4ca1	-0.028845133
207	0x3c9201c5	0.01782311
208	0xbbbb0e9d	-0.005708529
209	0x3d76d058	0.060257286
210	0xbd679540	-0.05653882
211	0x3c723318	0.0147826895
212	0xbdd2a74e	-0.10285817
213	0x3d0860fc	0.033295617
214	0xbc9b125c	-0.018929653
215	0x3cc4d83f	0.024028895
216	0xbd1293b6	-0.0357854
217	0x3d968558	0.07349652
218	0x39974c0f	0.00028857632
219	0x3d75c3a8	0.060001045
220	0xbcb5e1ee	-0.022202458
221	0xbd80c366	-0.06287269
222	0xbdacf75e	-0.08445619
223	0xbd06c936	-0.032906733
224	0xbd9017c0	-0.0703578
225	0x3c456427	0.012047804
226	0xbd10c4c7	-0.03534391
227	0xbcfb97e6	-0.03071208
228	0xbc5aa1b8	-0.013344221
229	0x3d525f11	0.051360194
230	0x3cab76cd	0.020930672
231	0x3e01b949	0.12668337
232	0x3dea7c8d	0.114495374
233	0x3b5aa676	0.0033363379
234	0xbd3b90d4	-0.045792416
235	0x3d895789	0.06706149
236	0xbb954210	-0.0045549944
237	0xbd4d9996	-0.0501953
238	0x3d0ac11a	0.033875562
239	0xbc13374d	-0.008985353
240	0x3c9a906f	0.0188677
241	0xbdd71387	-0.105017714
242	0xbd24fb78	-0.04027888
243	0xbdb0042e	-0.08594547
244	0x3ab26931	0.0013611672
245	0xbd0a7904	-0.033806816
246	0x3c2bd2c4	0.010487262
247	0xba6a4a67	-0.00089374784
248	0xbd3b0efd	-0.04566859
249	0x3c421ff9	0.011848443
250	0xb892f65b	-7.00771e-05
251	0xbb7584fd	-0.00374633
252	0x3cc2f775	0.023799637
253	0xbd2c0c59	-0.042003963
254	0x3d4fc898	0.05072841
255	0xbc6d0d0a	-0.014468441

l_a.bias f4 [2]
0	0xbd70fe01	-0.058835987
1	0xbd3b876a	-0.045783438

l_q.weight f4 [1, 200]
0	0x3e4ed544	0.20198542
1	0x3d2d2cde	0.042279117
2	0xbcd112c0	-0.025521636
3	0x3e31db99	0.17368926
4	0x3e6ccfca	0.2312614
5	0x3e6dca3e	0.2322168
6	0xbe0778a1	-0.1322961
7	0xbdb8d64e	-0.090252504
8	0xbddeafbb	-0.10873362
9	0x3df3530e	0.11881076
10	0xbd43a496	-0.047764383
11	0x3e12fae6	0.14353523
12	0x3e217fe7	0.15771447
13	0xbe6ce96d	-0.2313592
14	0xbcef2b0e	-0.029195335
15	0xbc314583	-0.010819796
16	0x3d7da8f3	0.0619287
17	0xbd5e340c	-0.054248855
18	0x3e5eb9b1	0.21750523
19	0x3e3cb360	0.18427801
20	0x3db449b1	0.08803118
21	0x3e13f074	0.14447194
22	0x3e306c3a	0.17228785
23	0x3e03e8af	0.1288173
24	0x3e5f1774	0.2178629
25	0xbe08f663	-0.13375239
26	0x3e689f8d	0.22717114
27	0xbd9bf51e	-0.07615112
28	0xbda467c4	-0.08027604
29	0xbcb1eb5c	-0.021718673
30	0x3da75fe0	0.081725836
31	0xbdcdaf4d	-0.100432016
32	0x3e7cb025	0.24676569
33	0x3e3b374d	0.18282814
34	0x3e2794af	0.16365312
35	0x3e25a28d	0.1617529
36	0x3e20b04d	0.15692253
37	0x3e174bc1	0.14774992
38	0x3e21777b	0.15768234
39	0xbd4d21fb	-0.050081234
40	0x3e73fa7d	0.23826022
41	0x3df78c72	0.12087335
42	0x3cb41804	0.021984108
43	0xbdd28f18	-0.10281199
44	0x3df14222	0.11780192
45	0x3d45e83e	0.048317187
46	0x3d9c7386	0.07639222
47	0x3cf14b28	0.029454783
48	0xbdc24e4f	-0.094875924
49	0x3e14b0ea	0.14520612
50	0x3e382b96	0.17985377
51	0x3e5306a9	0.2060801
52	0xbd37a91f	-0.04483902
53	0xbe15e2e2	-0.1463733
54	0x3e320b8f	0.17387222
55	0xbc726a05	-0.014795785
56	0x3e28d8df	0.1648898
57	0x3e06aece	0.1315262
58	0xbe11a952	-0.14224747
59	0x3e492c4e	0.19645807
60	0x3e1055f9	0.14095296
61	0xbcec80b9	-0.028869973
62	0x3e261a19	0.16220893
63	0x3d6c9d04	0.05776693
64	0x3e3e5f18	0.18590963
65	0x3c120a25	0.008913551
66	0x3e29e6f4	0.16592008
67	0xbc217179	-0.009853714
68	0xbdd72ce0	-0.10506606
69	0x3de91fef	0.11383044
70	0xbdbf984e	-0.09355222
71	0x3e1cd3d8	0.15315187
72	0x3e812a12	0.2522741
73	0xbe3b0cbe	-0.1826658
74	0xbda18f05	-0.07888607
75	0x3e48e163	0.19617228
76	0xbd60e7e3	-0.054908644
77	0x3e7341ae	0.23755524
78	0xbaeec84c	-0.0018217652
79	0x3e2200ed	0.15820666
80	0x3bac6788	0.0052613653
81	0xbd0360ee	-0.03207486
82	0xbd15f1f3	-0.036607694
83	0x3e312c13	0.17301969
84	0x3d6557f1	0.05599207
85	0x3e260fcf	0.16216968
86	0xbd8af403	-0.06784823
87	0x3e30e953	0.17276506
88	0x3e517393	0.20454244
89	0x3d5053f6	0.05086132
90	0x3c84bc81	0.016203167
91	0x3e05c94c	0.1306507
92	0x3dcb1c23	0.09917476
93	0xbcd2e029	-0.025741654
94	0x3d7c8ad4	0.061655834
95	0x3e801aeb	0.25020537
96	0x3e17a11b	0.1480755
97	0x3e6488b4	0.22317773
98	0x3e424ac9	0.18973841
99	0xbd4b74e3	-0.04967202
100	0x3e1430ac	0.14471692
101	0x3e21f742	0.15816978
102	0x3da0eb84	0.07857421
103	0x3e5d01c1	0.215827
104	0x3de0d4fd	0.10978124
105	0xbd670da4	-0.056409493
106	0x3d825008	0.06362921
107	0x3e513a19	0.20432319
108	0xbd324281	-0.043520454
109	0x3d9eead4	0.07759634
110	0x3e0fc8cc	0.14041442
111	0x3e54ecb7	0.20793425
112	0x3e2c6cfa	0.16838446
113	0x3d77f618	0.060537428
114	0x3e090ba8	0.13383353
115	0xbc8ceb6e	-0.017202105
116	0x3d762b99	0.06010017
117	0x3e38374d	0.17989846
118	0x3e7ab3e2	0.24482682
119	0xbd813037	-0.063080244
120	0xbddb4e0f	-0.10708248
121	0xbdba0d63	-0.090845846
122	0x3e147641	0.14498235
123	0x3e1df250	0.15424466
124	0xbddf4ca2	-0.109032884
125	0xbdcd19ff	-0.10014724
126	0xbd94490c	-0.07240495
127	0xbdf6eafc	-0.120565385
128	0x3d5630f7	0.05229279
129	0x3e3444a9	0.17604317
130	0x3e69b3b1	0.22822453
131	0x3c7833d4	0.015149076
132	0xbcbbb6f2	-0.022914384
133	0xbd97449e	-0.073861346
134	0x3dd91c1f	0.10601067
135	0xbc14729a	-0.009060526
136	0xbe2e5858	-0.17025888
137	0xbd82c236	-0.06384699
138	0xbe080e9e	-0.13286826
139	0x3e4daccf	0.20085452
140	0x3e5af9a0	0.21384287
141	0x3e2c421b	0.16822092
142	0x3e3dd9a3	0.18540053
143	0x3df62fce	0.12020837
144	0x3e30be6e	0.17260143
145	0x3e437fc1	0.19091703
146	0xbe0f469c	-0.13991779
147	0x3c27193b	0.0101988865
148	0x3db2f1ac	0.087375015
149	0x3cf09301	0.029366972
150	0x3cee4a38	0.029088125
151	0x3e10823f	0.14112185
152	0x3e52d736	0.20589909
153	0x3e2ad0f4	0.16681272
154	0x3c837ef5	0.016051749
155	0x3e5f25de	0.21791789
156	0x3cb02e81	0.02150655
157	0x3e55acd6	0.20866713
158	0x3e81dd39	0.25364092
159	0x3e40d1fd	0.18830104
160	0xbd4acd55	-0.049512226
161	0x3cc877a8	0.024471119
162	0x3e66cdcf	0.22539447
163	0xbe174b7d	-0.1477489
164	0x3e88c29f	0.26710984
165	0xbe49bf60	-0.1970191
166	0x3ddab683	0.106793426
167	0x3dd492a7	0.10379534
168	0x3d31d722	0.043418057
169	0x3e301338	0.17194831
170	0xbc92f48b	-0.017938873
171	0x3e534455	0.20631535
172	0x3e2381ec	0.1596753
173	0x3e5bd0c9	0.21466364
174	0x3ddd71fe	0.10812758
175	0x3e39caac	0.1814372
176	0x3cf988b7	0.030460699
177	0x3e69a240	0.228158
178	0x3dca9082	0.09890844
179	0xbdf14caf	-0.11782204
180	0x3cde70f2	0.027153466
181	0xbd0d7e90	-0.034544528
182	0x3cf06c9b	0.029348662
183	0xbdad33a4	-0.08457115
184	0x3e30e918	0.17276418
185	0x3e00cf87	0.12579165
186	0x3dd15b5f	0.10222506
187	0xbbec5681	-0.0072124605
188	0x3d19b940	0.037530184
189	0xbd4affdd	-0.049560416
190	0xbe2b2fc0	-0.16717434
191	0x3cec4db3	0.028845644
192	0x3e50a097	0.2037376
193	0x3e214593	0.15749197
194	0x3de8dc95	0.11370198
195	0x3e184632	0.14870527
196	0xbda20d6b	-0.079127155
197	0x3d14e8fb	0.036355
198	0x3db2b24e	0.08725415
199	0xbd9ec001	-0.077514656
