DDPG/ddpg.pth (torch_old, 3253 bytes, 8 tensors)

l1.weight f4 [30, 3]
0	0xbeed799d	-0.46381846
1	0xbe9d2433	-0.3069168
2	0xbbf4de33	-0.0074727773
3	0x3d97ae98	0.07406348
4	0xbe27f561	-0.16402198
5	0x3dcfa35e	0.10138582
6	0x3ea74674	0.3267094
7	0xc00f3434	-2.2375612
8	0x3f01c7ac	0.506953
9	0xc0455f71	-3.0839503
10	0x3f98ccad	1.1937462
11	0x3f879d8a	1.0594952
12	0x3ed7fe8a	0.42186385
13	0x405684e5	3.3518612
14	0xbeb152ee	-0.34633583
15	0x3fb6a17c	1.4268031
16	0x4027d044	2.6220865
17	0x3f984e26	1.1898849
18	0xbff85706	-1.9401557
19	0xbe9905e4	-0.29887307
20	0xbf5bc3f7	-0.85845894
21	0x3e7e5db5	0.24840434
22	0x3fbf4fd2	1.4946234
23	0xbf38a363	-0.7212431
24	0x3db791a4	0.089633256
25	0xbf0785b6	-0.529384
26	0xbbd625c0	-0.006535262
27	0x3ed83b2c	0.42232645
28	0xc03b2836	-2.9243293
29	0x3e5e9406	0.21736154
30	0x3fc696d5	1.551478
31	0x40241625	2.5638516
32	0x3f9c3c6f	1.2205943
33	0x401c3405	2.440675
34	0xc032e606	-2.7952895
35	0xbf91cb32	-1.1390135
36	0xc04584d0	-3.0862312
37	0xbf19b299	-0.60038143
38	0x3f547c4d	0.8300217
39	0x3e3b33e4	0.18281513
40	0xbf92089e	-1.140888
41	0xba926b09	-0.0011170815
42	0x3fab2373	1.3370193
43	0x4049ca41	3.1529696
44	0x3ef89226	0.48549002
45	0x3fdff720	1.7497292
46	0xc0246dc0	-2.5691986
47	0xbf5224c7	-0.8208737
48	0x3e73c185	0.2380429
49	0xc01d6e5c	-2.4598608
50	0x3e15bfb4	0.1462391
51	0xbf315efb	-0.69285554
52	0xbee62d37	-0.4495637
53	0x3d9497af	0.07255494
54	0xc0231a2b	-2.5484722
55	0x3cedf15a	0.02904575
56	0xbf867d54	-1.0506997
57	0xc02151e1	-2.5206225
58	0x3de9e8d3	0.11421361
59	0xbf83e54a	-1.0304348
60	0x3fabdf8d	1.3427597
61	0x401e5a28	2.4742527
62	0x3f93ae52	1.1537573
63	0x3fc49f86	1.5361183
64	0x402df7eb	2.7182567
65	0x3f8a2793	1.0793327
66	0x3f337aba	0.7010914
67	0xc01c50dc	-2.4424353
68	0xbf1da82c	-0.61584735
69	0x3f61bfd2	0.8818332
70	0xc00df478	-2.2180462
71	0xbf19ba80	-0.600502
72	0x3ff0c177	1.8809041
73	0xbff6be71	-1.9276868
74	0xbf513f36	-0.8173708
75	0x3e496bb7	0.19669996
76	0xbef7f8af	-0.48431918
77	0x3ce6f942	0.028195027
78	0xbfe14bde	-1.7601278
79	0xbfd50d75	-1.6644732
80	0xbf5be63b	-0.8589818
81	0x3ebe0b42	0.37117964
82	0xbea0b9f5	-0.31391874
83	0x3d900afc	0.07033345
84	0x3f5df17a	0.8669659
85	0xc01f8372	-2.4923978
86	0xbf56bb14	-0.8387921
87	0x3e902547	0.2815344
88	0xc030484d	-2.754413
89	0x3e855df8	0.26048255

l1.bias f4 [30]
0	0xbf21dca6	-0.6322731
1	0xbf6bf205	-0.9216617
2	0xbe30f00a	-0.17279068
3	0x3f081979	0.5316387
4	0x3d0b0c74	0.033947423
5	0xbee0d190	-0.43909883
6	0x3d7a1fe4	0.06106557
7	0xc00833b1	-2.128155
8	0xbf1eece0	-0.6208019
9	0x3dabfe66	0.08398132
10	0xbec64fac	-0.3873266
11	0xbf3d0386	-0.738335
12	0x3e32c433	0.17457657
13	0xbf95167c	-1.1647487
14	0x3f0877e6	0.5330795
15	0xbeffe668	-0.49980474
16	0x3e6d59b6	0.23178753
17	0xbfc1ef3e	-1.5151136
18	0xbebb817d	-0.3662223
19	0xbe921637	-0.28532574
20	0xbe5a8026	-0.21337947
21	0xbcd7ee21	-0.026358666
22	0xbf21261a	-0.62948763
23	0xbf43e873	-0.76526564
24	0xbf60587b	-0.8763501
25	0xbf3a74ea	-0.72834647
26	0xbf5a86b2	-0.8536178
27	0xbf71f5dd	-0.9451578
28	0xbecbc8de	-0.39801687
29	0x3ec9943b	0.39370903

l2.weight f4 [1, 30]
0	0xbaf86b31	-0.0018952844
1	0xbbc1ce57	-0.00591449
2	0x3e4851b1	0.19562413
3	0x3f8ba8c5	1.0910879
4	0xbfadf026	-1.3588912
5	0xbfa662a9	-1.2998859
6	0xbf4e613b	-0.8061711
7	0x3fc0afc3	1.5053638
8	0xb8bf5788	-9.123894e-05
9	0x3ec56251	0.38551572
10	0xbf986cfa	-1.1908257
11	0x3fe74019	1.8066436
12	0x3f8cb114	1.099154
13	0xbfa7f2f3	-1.3121017
14	0xbf723940	-0.94618607
15	0x3f3bb91c	0.7332933
16	0x3eb9b1fc	0.36268604
17	0xbf69b667	-0.9129395
18	0xbf92d440	-1.1471024
19	0xbfa648cf	-1.299097
20	0xbf844a3e	-1.0335157
21	0xbfd6e12c	-1.6787467
22	0x3f1e3496	0.6179899
23	0x3f149f19	0.58055264
24	0x3fa90778	1.3205404
25	0xbdc0c33d	-0.09412239
26	0xbfa43e8f	-1.2831591
27	0x3d71e340	0.059054613
28	0x3ee5936b	0.44839033
29	0x3f09db4f	0.53850263

l1.weight f4 [30, 3]
0	0x40283491	2.6282084
1	0x3fde18c7	1.7351311
2	0xbec6ed9e	-0.38853163
3	0xbeae9b67	-0.34102938
4	0x3f6285eb	0.8848559
5	0xbecb6fb9	-0.39733675
6	0x40256396	2.5842032
7	0xc031b79d	-2.7768319
8	0xbeea3c70	-0.45749235
9	0x3ec05621	0.3756571
10	0x3cec1164	0.028816886
11	0xbd502647	-0.050817754
12	0xbfc1b9cf	-1.5134829
13	0xc015e916	-2.3423514
14	0xbf2360b5	-0.6381944
15	0xc013eb46	-2.311235
16	0xc01b376f	-2.4252584
17	0xbedf5d46	-0.4362585
18	0xbf439b2a	-0.76408637
19	0x3ffbb5de	1.9664876
20	0x3ee8045f	0.45315835
21	0xc01c6527	-2.4436738
22	0x3fde7018	1.7377958
23	0x3f009aea	0.5023638
24	0xbf4dfc1c	-0.80462813
25	0xc06f3e8a	-3.738192
26	0xbf31771f	-0.6932239
27	0xbf4888de	-0.7833384
28	0x40544061	3.3164294
29	0x3ee477f9	0.44622782
30	0xbffc33ff	-1.9703368
31	0x3fe0ba22	1.7556803
32	0x3f0e5952	0.5560504
33	0xbf9042b6	-1.1270359
34	0x4024b156	2.5733237
35	0x3eb0bf97	0.3452117
36	0xbef5e578	-0.48026633
37	0x3fb13f48	1.3847437
38	0xbeb57a65	-0.35444942
39	0xbfa7b320	-1.310154
40	0x4009a063	2.1504142
41	0x3e3f8098	0.18701398
42	0x3f4286a1	0.7598668
43	0x3f9de330	1.2334957
44	0x3f0f39a4	0.5594733
45	0xc00e6741	-2.225052
46	0x3f22a9e2	0.6354047
47	0x3f051a39	0.5199314
48	0x40146a38	2.318983
49	0xbf74731b	-0.95488137
50	0xbe205147	-0.15656005
51	0xbf8af4d5	-1.0855967
52	0x402d0472	2.7033963
53	0x3ef4941c	0.47769248
54	0xbf173b10	-0.590745
55	0xc0352718	-2.830511
56	0xbcaad281	-0.02085233
57	0xc032616c	-2.7871962
58	0xbf365d00	-0.71235657
59	0xbd1b18ab	-0.037865322
60	0x3fb1faa5	1.3904616
61	0x3e45131d	0.19245572
62	0xbf8a9b6d	-1.0828682
63	0x400451e5	2.0674984
64	0x3ec10e14	0.37706053
65	0x3f070918	0.5274825
66	0xbf67559e	-0.90365016
67	0xc02b6558	-2.6780605
68	0xbed8d84f	-0.4235253
69	0x3da930aa	0.08261235
70	0xbda2200d	-0.079162695
71	0x3ec05090	0.37561464
72	0x3d7b3ba8	0.06133619
73	0xbe290824	-0.16507012
74	0xbb38e4ae	-0.0028212476
75	0xbf58547a	-0.845039
76	0xbe987688	-0.29777932
77	0x3e9d3495	0.3070418
78	0xbf8d1a50	-1.1023655
79	0x3fd83964	1.6892514
80	0x3f3be04c	0.73389125
81	0xbdb2f56c	-0.08738217
82	0xbe0f10e2	-0.13971284
83	0x3ba205c8	0.004944537
84	0x3ee9bd01	0.4565201
85	0xbf48e8b5	-0.7848008
86	0x3ee52d06	0.44760913
87	0xbffdb5a1	-1.9821054
88	0x4008096e	2.1255755
89	0x3e8472c1	0.258688

l1.bias f4 [30]
0	0x3ea7f6e4	0.3280555
1	0x3fbe5d47	1.4872216
2	0xbf5a5b38	-0.8529544
3	0xbe6e77fd	-0.2328796
4	0xbe6fcd43	-0.23418145
5	0x3f8aaf44	1.0834737
6	0x3f85348d	1.0406662
7	0x3e18f1f6	0.14936051
8	0xbdd97c5f	-0.10619425
9	0xbed0e4fb	-0.40799698
10	0x3ccc277c	0.024921171
11	0x3e9d7931	0.30756524
12	0x3f6d4268	0.9267945
13	0xbf388c68	-0.7208924
14	0x3f25a037	0.64697593
15	0x3ee7b60b	0.45256075
16	0xbfbf826e	-1.4961679
17	0x3c80c0b4	0.015716888
18	0xbf82d902	-1.0222476
19	0xbf953ec9	-1.1659786
20	0x3eeb2473	0.45926246
21	0xbf9da3fe	-1.2315671
22	0x3db7ce8d	0.08974943
23	0xbf9c4543	-1.2208637
24	0xbf10ebb9	-0.56609684
25	0x3ec05af2	0.37569386
26	0x3e44dc77	0.19224726
27	0xbf7c1517	-0.9846968
28	0xc00b5658	-2.177145
29	0xbf31886e	-0.693488

l2.weight f4 [30, 1]
0	0x3b3df567	0.0028985383
1	0xbb280ba2	-0.00256417
2	0x3ba60da7	0.0050675455
3	0x3d291a56	0.04128488
4	0xbaad96f0	-0.0013243835
5	0xbb871a72	-0.0041230256
6	0x3905f197	0.00012773868
7	0x3bfc11b1	0.0076925387
8	0x36891f80	4.0865852e-06
9	0x3b372e6c	0.0027951254
10	0xbb61ab2e	-0.0034434306
11	0x3972238c	0.0002309216
12	0x3b078af2	0.0020682183
13	0xbba7d8b5	-0.005122269
14	0x3ad15c57	0.0015972954
15	0x3c16ba60	0.009199709
16	0xbd1b3c82	-0.0378995
17	0x3af9d40a	0.0019060385
18	0x3c0948f0	0.008379206
19	0x3a7c10f5	0.0009615564
20	0x3b6490cd	0.0034876347
21	0x3aad3312	0.0013214073
22	0x3b97c3dd	0.004631503
23	0x3c2c5570	0.010518417
24	0xbe8c083c	-0.27350032
25	0x3b44f09d	0.0030050643
26	0x3ba750ba	0.005106059
27	0xbe24f908	-0.16110623
28	0xbbc158fd	-0.005900501
29	0xbb7c8a60	-0.0038534626

l2.bias f4 [30]
0	0xbf5de744	-0.8668101
1	0x3faf2f07	1.3686227
2	0xbef51fa5	-0.47875705
3	0xbf15c06b	-0.5849673
4	0xbef42bb2	-0.47689587
5	0xbea195a0	-0.31559467
6	0x3e0cb315	0.1374019
7	0xbd5dd946	-0.054162286
8	0xbe604b6f	-0.21903776
9	0x3e02ed69	0.12785877
10	0x3f8d9951	1.1062413
11	0xbf73bbbe	-0.95208347
12	0x3f8ba7d8	1.0910597
13	0xbf578c76	-0.841987
14	0x3fa0fcdf	1.257717
15	0xbf581df8	-0.8442073
16	0xbff20f83	-1.8910984
17	0xbf0b9a1c	-0.5453203
18	0xbf626919	-0.88441616
19	0xbe6ccffd	-0.23126216
20	0x3f754418	0.9580703
21	0xbf38a307	-0.7212376
22	0xbf80f587	-1.0074929
23	0xbff03fdd	-1.876949
24	0xbe52b6e0	-0.20577574
25	0x3fb3c86b	1.4045538
26	0x3eab5cce	0.33469242
27	0x3eda3614	0.42619383
28	0xc0029007	-2.0400407
29	0xbf96a152	-1.1767981

l3.weight f4 [1, 30]
0	0xbf0a2ab2	-0.539714
1	0xbf0a0ecb	-0.5392882
2	0xbf429def	-0.7602224
3	0xbc531d71	-0.012885437
4	0x3f67bf93	0.90526694
5	0xbf814f10	-1.0102253
6	0xbf018ab8	-0.50602293
7	0x3ef9db15	0.4879996
8	0xbf919132	-1.1372435
9	0xbf6d801a	-0.9277359
10	0xbf2ef7d2	-0.68346894
11	0x3f10836b	0.5645053
12	0xbecbf730	-0.39837027
13	0xbf0e0e7e	-0.55490863
14	0x3f16363f	0.5867652
15	0x3efd8291	0.49513677
16	0x3f90ed3f	1.1322402
17	0x3f33625d	0.70071965
18	0x3e90a449	0.2825034
19	0xbf27cc60	-0.65546227
20	0x3f21bc7e	0.6317824
21	0xbef978c8	-0.4872496
22	0x3f31078a	0.6915213
23	0xbfd4bde0	-1.6620445
24	0x3c3040ed	0.010757667
25	0xbeb64997	-0.3560302
26	0xbf11a3cc	-0.5689056
27	0x3b7692aa	0.003762404
28	0xbfbf284b	-1.4934171
29	0xbf37b48f	-0.71759886
