DQN/dqn_catpole.pth (torch_old, 1359 bytes, 4 tensors)

l1.weight f4 [20, 4]
0	0xbe892590	-0.2678647
1	0xbe8dafb7	-0.27673122
2	0xbfe57ff8	-1.7929678
3	0xbe4b519a	-0.19855347
4	0x3ef5db45	0.48018852
5	0x3df06446	0.11737876
6	0xbdd83761	-0.10557438
7	0xbdf5be31	-0.11999167
8	0xbea1b252	-0.3158136
9	0xbe66cea5	-0.22539766
10	0xbf3e7c0a	-0.7440802
11	0xbdc2865a	-0.09498282
12	0x3dfd2bc6	0.12361865
13	0x3eb2447f	0.34817883
14	0x3fa42d5c	1.2826343
15	0x3ed36fa0	0.412961
16	0xbe92b343	-0.2865239
17	0xbeec3240	-0.46132088
18	0xc00721be	-2.1114345
19	0xbebf8684	-0.37407315
20	0xbeafb750	-0.34319544
21	0x3e75cdef	0.24004339
22	0xbf291079	-0.6604076
23	0xbe350d9a	-0.1768097
24	0xbd48be30	-0.049009502
25	0xbee32cd7	-0.44370148
26	0xbfd7996b	-1.6843694
27	0xbeaedaad	-0.3415121
28	0x3ece6dc1	0.4031811
29	0x3d3921ac	0.045198128
30	0xbe863446	-0.26211756
31	0x3bf56a5e	0.0074894866
32	0xbe3ce407	-0.1844636
33	0xbf04868d	-0.5176781
34	0xbfeeda52	-1.8660376
35	0xbf021065	-0.50806266
36	0xbd027185	-0.031846542
37	0xbd81dbcc	-0.06340751
38	0x3f6cafca	0.9245573
39	0x3efc741f	0.49307343
40	0x3ed86a33	0.42268524
41	0x3e2890f3	0.16461544
42	0x3f092dd8	0.53585577
43	0x3e4d1867	0.2002884
44	0xbf3fb497	-0.74884933
45	0xbe1e9237	-0.15485464
46	0x3ed0871f	0.4072809
47	0xbdd8a7b4	-0.10578862
48	0x3f399915	0.7249921
49	0xbe342bae	-0.17594787
50	0xbeb22c23	-0.347993
51	0xbe66bea1	-0.22533657
52	0xbe26e6f4	-0.16299039
53	0x3e8c4c90	0.27402163
54	0x3f1c5924	0.6107352
55	0x3df9b333	0.12192383
56	0x3da95f5e	0.08270143
57	0xbe482e51	-0.19548918
58	0xbf8a1f23	-1.0790752
59	0xbe86a377	-0.2629659
60	0xbcf90145	-0.030396113
61	0xbdda4d20	-0.10659242
62	0x3d6fb555	0.05852254
63	0x3e227b25	0.15867288
64	0xbf16afee	-0.588622
65	0x3eeed3e8	0.46646047
66	0x3f4e65a7	0.8062386
67	0x3eda2d46	0.42612666
68	0x3e9604c5	0.29300514
69	0x3f1cdb43	0.61272067
70	0x3fa4e577	1.2882527
71	0x3e58c721	0.21169712
72	0xbef13fda	-0.47119027
73	0xbf484de2	-0.7824384
74	0x3d9f4e67	0.07778626
75	0xbe4516b3	-0.1924694
76	0xbf1c658f	-0.61092466
77	0xbeb02d83	-0.34409723
78	0xbf1f95b1	-0.62337786
79	0xbe7c4cf1	-0.24638726

l1.bias f4 [20]
0	0xbe8a1ea7	-0.2697651
1	0xbed3447e	-0.41263193
2	0xbdbaaafd	-0.09114645
3	0xbea13d67	-0.3149216
4	0xbecb3974	-0.3969227
5	0x3eddc026	0.4331066
6	0xbdfa23ca	-0.122138575
7	0xbeccdc27	-0.40011713
8	0xbe663a93	-0.22483282
9	0xbea01398	-0.3126495
10	0x3d8ce4f9	0.068796106
11	0xbd9b02a4	-0.07568863
12	0x3f0197b4	0.50622106
13	0x3fa20e01	1.2660524
14	0xbcaba142	-0.020950917
15	0xbe9c5c24	-0.30539048
16	0xbeafa425	-0.3430492
17	0xbef43036	-0.47693032
18	0x3f1b9593	0.6077511
19	0xbdf96755	-0.12177912

l2.weight f4 [2, 20]
0	0xbf2c873a	-0.6739384
1	0xbf0c5a7a	-0.54825556
2	0xbd74dde0	-0.05978191
3	0xbf3a1945	-0.7269481
4	0xbf44cf4a	-0.768788
5	0x3e2893eb	0.16462676
6	0xbe867d48	-0.26267457
7	0xbefb7aa4	-0.49117005
8	0xbdebea97	-0.11519354
9	0xbdc8e3f8	-0.098091066
10	0x3c1e0a74	0.009646047
11	0x3e3a977f	0.18221854
12	0x3eb27916	0.34858006
13	0x3ecf8b0c	0.40535772
14	0xbe429415	-0.19001801
15	0xbdc2affc	-0.095062226
16	0xbe5bc08e	-0.21460173
17	0xbee0a73c	-0.4387759
18	0x3e828bd6	0.2549731
19	0xbea813dc	-0.32827652
20	0xbf163b23	-0.58683985
21	0xbf032f04	-0.51243615
22	0x3b68aead	0.0035504506
23	0xbf1906b1	-0.59775835
24	0xbf2e8fdf	-0.6818828
25	0xbca2c5b9	-0.019869672
26	0xbe4807b5	-0.1953419
27	0xbef0728a	-0.46962386
28	0xbe226cfc	-0.15861887
29	0x3cb96c25	0.022634575
30	0xbe63c5c1	-0.22243406
31	0x3e68f9f3	0.22751598
32	0x3e961497	0.29312584
33	0x3ef9add3	0.4876543
34	0xbebd7afc	-0.37007892
35	0xbe61bddb	-0.2204508
36	0xbe44ee21	-0.19231464
37	0xbec9fa4c	-0.39448774
38	0x3e068d67	0.13139878
39	0xbea3db7b	-0.32003388

l2.bias f4 [2]
0	0x3d956c7d	0.07296083
1	0x3e390c1e	0.18071029
