DQN/NatureDQN_checkpoint/NatureDQN.pth (torch_old, 1359 bytes, 4 tensors)

l1.weight f4 [20, 4]
00000000: 8d40 82be 72f7 063f 6db5 f53e 4e2e 7a3f
00000010: 4aae a5bb 5956 a73d 9e85 acbe 90db 5c3c
00000020: 9d3e 153f 9f4a a93e f3fd 1c3f c33f 393e
00000030: d014 fcbe 21d9 a73e b2b7 cdbe 8578 2e3e
00000040: 671b e3be b71f 2abe a726 67bf fb28 48be
00000050: 9439 6ebe f5b8 91bd 4881 69be ef6f 543e
00000060: 67b6 0e3f 978c 13bf 79cb 59be b4ca 10bf
00000070: 620b 3dbd fa74 18bf d871 e93e a9d7 a53d
00000080: 6e06 0d3f 2825 dabc 114a c6be 7ec7 98be
00000090: d26f 61be c8ca c4be 9f10 7bbe 5af3 98be
000000a0: 8981 333e d656 70be 1cae fcbe af5c edbe
000000b0: 3b8f c13e ffe6 c4be 4b59 d4be 34c7 2d3e
000000c0: ff57 70be 48e1 363e 5e04 86be cafa 52be
000000d0: 13cd 1a3f a832 1cbf a7d4 d5be 29a9 debe
000000e0: 6cbc 45be 9a36 84be 1fe1 2abd 0c2f acbe
000000f0: 3143 80be b04e c53e f038 9e3f aa2c 503f
00000100: e3ff b0bd c502 733d d0e9 2fbf 8611 8f3d
00000110: 9846 10bf 730c bbbe 28ca aebd e3e4 44be
00000120: cd62 9ebd e2ca 0e3f e377 7f3f 36b4 fd3e
00000130: 2d33 513f 8d3e 163f 17ca 443e 9569 9d3e
-0.25439873 0.5272132 0.4798998 0.97726905 -0.0050561773 0.081707664 -0.33695692 0.013480082
0.58298665 0.33064744 0.61324996 0.1809073 -0.4923463 0.32782844 -0.4017921 0.17038162
-0.44356844 -0.16613661 -0.90293354 -0.19546883 -0.23264152 -0.07115356 -0.22803223 0.20745824
0.55747074 -0.576364 -0.21269025 -0.565593 -0.046153434 -0.5955349 0.45594668 0.080977745
0.55087936 -0.026629046 -0.38728383 -0.298397 -0.22015312 -0.3843596 -0.24518059 -0.29873163
0.17529882 -0.23470625 -0.49351585 -0.46359774 0.3780459 -0.38457486 -0.41474375 0.16970521
-0.23471068 0.17859375 -0.26175207 -0.20603481 0.6046917 -0.61014795 -0.41763803 -0.43488434
-0.19310158 -0.25822908 -0.0417186 -0.33629644 -0.25051263 0.38536596 1.2361126 0.8131815
-0.086425565 0.059328813 -0.68716145 0.06985764 -0.5635772 -0.36532936 -0.08534652 -0.19227938
-0.077336885 0.55778325 0.9979231 0.49551553 0.81718713 0.58689195 0.19217716 0.30744615

l1.bias f4 [20]
00000000: 326d c6bd 2d69 693f e3f3 53bf f899 793f
00000010: 8060 6e3f 18ef 713e 6d2b cfbe 3400 85be
00000020: 48c7 00be 45b0 7b3e 76a6 9d3e b852 cf3e
00000030: 8c0a 0f3f 9985 bfbe e922 c3be 5f2c f1be
00000040: 5f25 7f3f faab c33e 3041 42bd b797 0abf
-0.09688796 0.9117611 -0.82794017 0.9750056 0.93116 0.23626363 -0.4046282 -0.25976717
-0.1257602 0.2457896 0.30791062 0.40492797 0.5587547 -0.37406614 -0.38112572 -0.47104165
0.996664 0.38217145 -0.04742545 -0.5413775

l2.weight f4 [2, 20]
00000000: aae5 1ebe d4e5 0a3f aeda d5be bf0e 083f
00000010: 0bf0 a3bf 7179 ce3c 0351 18bf f8c4 acbe
00000020: 53bb 9a3e 7e67 6f3e fb3b 0e3c 1c34 303e
00000030: 64d9 a83e 9354 1abf 4d03 3bbe 4e2c 78bf
00000040: 1205 ca3e fd4f 153f 0b8f 9fbe 616e e1be
00000050: 3d0d 84be d321 c03e 15bb 90be a629 0b3f
00000060: 2016 9dbf 0097 1ebe 64f3 42bf fd2f 4b3c
00000070: dd1e f83e abe8 fd3e 3cd7 38bf 722a a23e
00000080: a266 0b3f aa77 26bf 3358 cd3d 329a 28bf
00000090: df22 fb3e 09de 9e3e 2225 a1be fe53 03bf
-0.15517297 0.5425694 -0.41768402 0.531475 -1.280763 0.025204392 -0.59498614 -0.33744025
0.30221042 0.23379323 0.008681293 0.17207378 0.32978356 -0.602853 -0.18262978 -0.96942604
0.39456993 0.5832518 -0.3116382 -0.44029525 -0.2579135 0.37525806 -0.28267732 0.54360425
-1.2272377 -0.1548729 -0.76152635 0.012401578 0.48461047 0.49591574 -0.7220342 0.31673008
0.5445348 -0.6502634 0.10026588 -0.65860283 0.49050042 0.31028774 -0.31473643 -0.51300037

l2.bias f4 [2]
00000000: fb5a 813e 2f91 ae3e
0.25264725 0.3409514
